Models/4x4_model.pth (torch, 505204 bytes, 8 tensors)

fc1.weight f4 [256, 101]
00000000: 5fab 84be 45e2 81be 2dd5 c63e 6df4 04bf
00000010: 07a9 e5be c2ef 053d e313 63be 996c 343d
00000020: c626 f73e 36e1 103e f4bc 9d3e 81ed a2bd
00000030: f8b4 56bd ad63 2ebe 91c4 debd 4904 2fbe
00000040: d196 933c f7ae 963c e0c7 b6be 3b2a a53e
00000050: 9b77 843c 0436 97bd 17ca 113e 4e00 4cbd
00000060: 8350 c9be 82d9 aebd 8524 05be d84f bc3c
00000070: 2b4f 39bd ee3b 9c3d b482 3d3d d3b7 9bbc
00000080: 6d7a 063d be7d 173d 2e7b cd3d 61ad b7bd
00000090: 60d2 053d 1ac7 e63c fa4b a53c 0bb4 e0bd
000000a0: c599 713d d7c3 07be 589b 783c c778 28be
000000b0: 5bc1 5d3d 935c bfbd 7d55 0cbe 49bf 36bc
000000c0: 0de5 81bc 36a0 a43d 4cd0 01be 08ea 023e
000000d0: 933a d03d 3fab 99bd 668a 7f3d 1f29 0bbd
000000e0: 0384 2ebe 24f5 02be 0629 23bd 1c26 79bd
000000f0: e145 4ebe 2760 91bc b3bf 85bc 76f5 d53d
00000100: 6d79 5ebe 6614 bfbd 2859 153d e9cb 88bd
00000110: 165e e63b b836 183b 130c 613c 753b 15bc
00000120: 525c 093d fb80 ebbc 567c 203d c1ff 8e3c
00000130: b831 b53c 15a6 c7bc d50c 15bc 4415 12be
00000140: 536d a13d cf24 1f3d 7dd9 aebd 29e8 a43d
00000150: 47cc 26be 891b 9dbd 6350 24bd 403d 84bb
00000160: 3ae9 1ebd 517e d63c 865f 7dbc 06dd 6c3d
00000170: 1448 aabc 59cc ab3d f230 0fbd 99dc 1fbd
00000180: b92f d0bd f3e0 46be 4f3d 793e 2957 18be
00000190: a4a3 c3bd 2f10 3d3f 9fe9 173f a920 1d3f
000001a0: c319 1e3f d073 5cbd fc09 1cbd 7e0e 7e3d
000001b0: df83 41be 0cb8 16be b089 b2bd f741 6fbe
000001c0: 19a3 2cbe 880b d8be d353 f8be 5b9c f1be
000001d0: e055 32bf e27d 24be ad81 e03c 4abd 9fbb
000001e0: 8ddb a93d e89b 5e3d 3de9 273e 4a6e 7d3e
000001f0: 0ea7 a53e f634 423e 6ca9 793e a24a 8b3e
00000200: 061c b33e 4bf1 2d3e 033d 093d 95f2 4b3e
00000210: 4f94 b33c c164 023c 9f65 bdbc c5c4 673b
00000220: d755 ec3c 46f2 143c 403b f8bb 275f 1fbc
00000230: 5a19 153d 97a1 52bc 05fe d7bc 0894 243b
00000240: bca9 393d f4ad a93d fad3 183d 04ba 4fbd
00000250: db3e b53d 2596 80bd c921 8cbb 7f62 c0bc
00000260: b01d fc3c f1a9 153c 27c8 893d 5a60 c93d
00000270: 3c7b bd3d 561b 9b3d e5cb ce3d 6cfa e23d
00000280: 9d89 213e 1fb8 a43d b2ea 123e dc1d c13d
00000290: cf9d 68be 7a5d 733b a9d1 413c 65c6 f4b9
000002a0: d7dd 443b 9e93 9a3c 3f7c 113d 7172 3d3c
000002b0: 3727 a5bd 7e86 8e3c f5bc c9bc 8dd3 223d
000002c0: e8e0 793d de11 623d 526d 91bc bb9e 0e3e
000002d0: 3572 0d3d 9c83 613d 2eb8 193c 8f6d 083d
000002e0: fc3d 82bc 5df0 94bd b87d 183d 6b8c 323d
000002f0: f99d aa3d 7e55 59bd 39d9 4b3b 3351 2e3d
00000300: 59ed 86bd 81af 45bd 288f 25bc a50d b33d
00000310: f385 b13d 232a a33e cbe0 843e a83c 70bf
00000320: 9ee6 983e 10c2 5ebf 9d33 46be d1a2 9f3e
00000330: 86d0 e83e bff7 6ebe bceb 393d 820f b33e
00000340: cf91 d7bc 5b2d 0d3e cbb3 40be f211 41bd
00000350: fb1a 42be 7f90 27be 3e73 9ebd f5d4 a63b
00000360: dd69 e5bd 8021 76bd 9671 de3d 5c01 59be
00000370: 3664 97be 5eab ce3d 6e48 cebd c16b fabd
00000380: 8e9e 6dbe dcac 90bd 8584 693e e9ae 07be
00000390: 5b58 8a3d 20a9 08bd f861 0c3e 3fd1 063d
000003a0: ac26 053e c551 5f3e 6bd7 6b3d c62a 003d
000003b0: 1887 293c f706 adb9 bae4 96bd 633f 233d
000003c0: c8d6 c0bd aec5 b0bd 312c 80bd 254f ecb9
000003d0: 3856 8fbd 9d0f 183e 0ea3 bb3c 8cd8 f0bd
000003e0: 3bae 053e bb13 d7bd 5306 79bd f17e 8fbd
000003f0: 5d56 a1bd 8368 313e bbf1 ca3c 2af6 e3bd
-0.25911996 -0.25367942 0.38834515 -0.51935464 -0.4485552 0.032699354 -0.22175555 0.04404888
0.4827177 0.14148411 0.30808222 -0.079554565 -0.05241868 -0.17030211 -0.10877336 -0.17091478
0.01801625 0.018393977 -0.35699368 0.32258782 0.016170314 -0.073833495 0.14237247 -0.049804978
-0.39319238 -0.0853758 -0.13002212 0.022987291 -0.045241516 0.07628618 0.046267226 -0.019008553
0.032831598 0.03698515 0.1003326 -0.08968616 0.032671332 0.02817111 0.02017783 -0.109718405
0.058984537 -0.132583 0.015173756 -0.16452323 0.054139476 -0.09343829 -0.13704486 -0.011154004
-0.01585629 0.0803837 -0.12677115 0.12784588 0.10167422 -0.07503366 0.062387846 -0.033974763
-0.17042546 -0.12788826 -0.039834045 -0.06082736 -0.20143844 -0.017746044 -0.01632676 0.104472086
-0.21726008 -0.093300626 0.03646198 -0.06679518 0.007030259 0.0023225974 0.013735789 -0.009108414
0.03353531 -0.028748026 0.039181076 0.017455937 0.022118434 -0.024371186 -0.009097298 -0.14265925
0.0788218 0.038853463 -0.08537576 0.080520935 -0.16288863 -0.076712675 -0.040115725 -0.004035622
-0.03879664 0.02618328 -0.015464669 0.057827972 -0.020786323 0.083885856 -0.034958787 -0.039028738
-0.101653524 -0.19421749 0.24339794 -0.14876999 -0.09552696 0.7385282 0.5934085 0.6137796
0.6175806 -0.053821385 -0.03809546 0.06202554 -0.18897961 -0.14718646 -0.08717668 -0.23365007
-0.16859092 -0.42196298 -0.48501453 -0.47189602 -0.69662285 -0.16063645 0.027405584 -0.00487486
0.08293829 0.054347903 0.16397567 0.24749103 0.32354015 0.18965515 0.24381036 0.27205378
0.34982318 0.16986577 0.03350545 0.19916756 0.021921305 0.007958592 -0.023119746 0.0035365087
0.028849525 0.009090966 -0.0075754225 -0.009727276 0.03640113 -0.012855909 -0.026366243 0.0025112648
0.045327887 0.08285132 0.03731153 -0.050714508 0.08849879 -0.06278638 -0.0042764884 -0.023484467
0.030775875 0.0091347555 0.06727629 0.09832831 0.09252021 0.07573573 0.100974835 0.110829204
0.15775152 0.08042931 0.14347342 0.09429523 -0.22716449 0.0037134574 0.011829772 -0.00046687122
0.0030039453 0.018869217 0.03551888 0.0115629295 -0.0806412 0.017398115 -0.024626235 0.03975253
0.061005503 0.05519282 -0.017752323 0.13927738 0.034532744 0.055057153 0.009382291 0.03330761
-0.015898697 -0.07272408 0.03722927 0.043590944 0.08330912 -0.053060047 0.0031104817 0.042557906
-0.06588239 -0.048263077 -0.010104932 0.08742837 0.08668127 0.31868085 0.25952753 -0.93842554
0.29863447 -0.87014866 -0.19355626 0.31178907 0.4547159 -0.23336695 0.04539083 0.3497277
-0.026314644 0.13786833 -0.18818586 -0.047136255 -0.18955605 -0.16363715 -0.077368245 0.0050913044
-0.112018324 -0.06009054 0.108615085 -0.21191925 -0.29568642 0.100912794 -0.100724086 -0.12227584
-0.23205015 -0.0706422 0.22804458 -0.13250317 0.06755134 -0.033364415 0.13709247 0.032914396
0.13003033 0.21808536 0.057578485 0.031290792 0.01034715 -0.0003300232 -0.07367845 0.039855372
-0.09415966 -0.086314544 -0.06258429 -0.00045072395 -0.06998867 0.14849706 0.022904899 -0.11760053
0.13054745 -0.1050181 -0.060797047 -0.07006634 -0.078778006 0.17325024 0.02477347 -0.111309364

fc1.bias f4 [256]
00000000: 7dad debd 6688 413d 139f d6bd 10b7 443c
00000010: 41e9 29bd 3086 763d 631c 51be fcbc 14be
00000020: abe6 9cbd 5637 6fbe de0d 83bc 290c 0cbd
00000030: 27a4 cebd a844 223d 2d59 c6bd 01ef 08bd
00000040: ba93 27be 472d 5fbc 7ef9 b3bb 8b80 45bd
00000050: 1c1c ba3d 8ced 49be 7796 a4bd d2fe 05bd
00000060: 1ccf 8bbd 39df 50be d479 543d 8c33 b2bd
00000070: 4989 8a3d 6087 4dbe 7e29 ad3c 63df 0cbe
00000080: 8e6e 24bd 9dc0 e5bd 026d edbd 9eab 06bd
00000090: 16ee 65bd 6e75 693d 0199 30be d6c4 3fbe
000000a0: d166 06bd 6f5b 85bd ba70 b4bd ee7c 923d
000000b0: 271c 20be 791c a8bd 931f 22be e82b 14be
000000c0: 48f8 62bd 57f1 72bd 966e 88bc ec97 f9bd
000000d0: 8738 b03d 46a7 abbd f588 daba 85d5 d83c
000000e0: 15ec 153e c313 e7bd bb35 b5bd 4f87 893d
000000f0: 1b25 94bd d90f 54bd f1da 10be c44c 0a3d
00000100: 09d2 7f3d 56f6 9bbc 3470 2cbe d1d6 0fbe
00000110: 3cea bf3c d7d5 88bd fe36 edbc 1a4b 23bd
00000120: 35c8 ffbd 571d 963d e07c 8cba 846e 69be
00000130: 5dc5 e9bd cc68 2dbd bbca c1bb c188 dabd
00000140: 82f6 b6bd 8ac9 ef3c 52dd ffbd f3f7 ebbc
00000150: 5580 9fbd 8d02 433d b3b9 9abd e88b cbbc
00000160: bf56 b5bd feda ac3d d2c8 4dbc d72b 15be
00000170: d2d8 36bc 9d92 adbd de43 743d 9a21 e73d
00000180: 64b2 393c 63b7 04be ffb8 8dbd cf7e 433d
00000190: f4f9 7abd c823 823c f81d 14bd 3cfd 13be
000001a0: 7849 cbbc c89f 9ebd f3be 24be 98b1 0abe
000001b0: fa0a 923d 9fd7 b3bd 8312 223d aba5 76bd
000001c0: 4d81 0fbd e15a e93c 74da 9abb 07d8 c6bb
000001d0: 1f3f c33d 9c52 e7bc 1539 cd3d 16fd c83b
000001e0: 5edd b8bd bde8 a93d f640 f0bd d988 2dbc
000001f0: 98e7 6ebd 3249 24bd 8ed6 22bc 8574 44be
00000200: dfb0 ccbd 9f68 0cbd deaa 85be 69d3 c3bc
00000210: 90da 7b3c 9fef a0bd be0a c53d a801 803c
00000220: aa11 d33a 96f8 d83d 0d1a e03d 4e3b 003d
00000230: 79a5 dfbb e12c 33bd c2da dabd 3da5 8cbd
00000240: 89d2 573d 509b 95bd 204e 143d aa3c c9bd
00000250: a20f 1bbe 1739 8bbd f013 a2bc b04b 31bd
00000260: 5842 883d cd64 f33c 33fe b2bc 5ce0 f9bc
00000270: 6c6e ec3c cdb4 2bbe 314d 5cbb 91bf 5c3c
00000280: e0a4 053d 7ffb d3bc b8b2 31be 6cd6 f6bd
00000290: b186 cebd a63f cfbd cf1e c2bc 9a3f 153d
000002a0: 66b3 553c ae39 debd 2fc1 72bd cb77 1cbc
000002b0: 3050 4fbe 73e8 0dbe 167e c2bd f405 14bd
000002c0: 3b6d c03d b5c1 85bd f317 94bc ed62 b6bd
000002d0: de01 f4bd 0f3b 1abd 81bb 61bd 5c07 d73c
000002e0: df40 3fbd de7b 51bd 9bc8 00be a36d 95ba
000002f0: 6e8e eebd 7f9e e8bd 488d 36bc b6b8 d4bd
00000300: 2de9 b3bd f48f 21be cec8 63bd 15af 8d3d
00000310: 13be 00bc e929 28be 53f2 b03d 7dbd 033c
00000320: 7ae8 97bd 6328 61be 1dfe b9bd ad23 2fbb
00000330: 844e 023e df71 d6bd 2cbe b1bd 25e6 60be
00000340: 9ccb 06be a0f7 8ebd 2546 4dbe 18fb 01be
00000350: a632 08be 99f0 e13d f2e8 38be 7355 113c
00000360: 2785 f5bb ab40 debd a20b 893d 86c5 c9bd
00000370: 74a8 fabd df35 233d 390f c7bd 48d7 423e
00000380: 5a83 bbbd 7571 cb3c c5e7 d8bd e2b3 cfb9
00000390: 23ea d7bd 7e1a 00be 9782 4bbe 2c22 bbbd
000003a0: 9a64 5bbd 275c 633d 4e4e a03a c1bb a6bc
000003b0: 4e62 d2bc 7249 a7bd 2335 4cbe 8ecd ff3c
000003c0: ea35 05be 9f4e 27bd 41ed b13d 056e fabd
000003d0: 2537 923d 4540 71bb dc18 cabc 0acf 85bd
000003e0: ced6 cb3d 93ff 3cbc 8c4c 18bd 4b72 733d
000003f0: 895f e33b 1890 ebbd 0561 193c bfd1 6dbd
-0.10872934 0.04724922 -0.1047956 0.012006536 -0.041482214 0.060186565 -0.20420985 -0.14525217
-0.07661184 -0.23360953 -0.015997823 -0.034191284 -0.10089903 0.039616257 -0.09684978 -0.033431057
-0.16364947 -0.013621635 -0.0054923883 -0.04821829 0.09087393 -0.19719523 -0.080365114 -0.03271372
-0.06826612 -0.20397653 0.051873997 -0.08701238 0.06764466 -0.20071173 0.02113795 -0.1375709
-0.040144496 -0.11218379 -0.11593057 -0.03287851 -0.05613526 0.056996755 -0.17245866 -0.1872743
-0.032812897 -0.0651158 -0.088105634 0.07152735 -0.1563574 -0.08208556 -0.15832357 -0.14469874
-0.05541256 -0.05931219 -0.016654294 -0.1218718 0.08604532 -0.08381514 -0.0016672896 0.026469002
0.1464084 -0.11283066 -0.08848139 0.06715261 -0.0723364 -0.051772926 -0.1414602 0.033764616
0.062456165 -0.01903836 -0.16839677 -0.1404679 0.023427121 -0.06681412 -0.028956886 -0.039866544
-0.12489358 0.07329815 -0.0010718368 -0.22796065 -0.11414597 -0.04233627 -0.00591406 -0.10670615
-0.089337364 0.029270906 -0.124933854 -0.028804755 -0.07788149 0.047609854 -0.075549506 -0.024846986
-0.08854436 0.08440207 -0.012560086 -0.14567505 -0.011160092 -0.0847523 0.059635036 0.11285706
0.011334036 -0.12960581 -0.06920051 0.047728356 -0.06127353 0.015886202 -0.036161393 -0.1445207
-0.024815306 -0.077453196 -0.16088466 -0.13544309 0.07131 -0.08781361 0.039568435 -0.060216587
-0.03503542 0.028485717 -0.0047257487 -0.006068233 0.09533524 -0.028237633 0.10020653 0.006133686
-0.090265974 0.082963444 -0.1173114 -0.010591709 -0.058326334 -0.040108867 -0.009938849 -0.19185074
-0.09994673 -0.034279462 -0.26106924 -0.02390452 0.015371934 -0.07858204 0.096211895 0.01562579
0.0016103287 0.10594289 0.10942469 0.031306557 -0.006825146 -0.04374397 -0.10686256 -0.06867454
0.052691016 -0.07305014 0.03620732 -0.09826024 -0.15142682 -0.067979984 -0.019784898 -0.04328507
0.06653279 0.029711151 -0.021849727 -0.03050249 0.028861247 -0.16768189 -0.0033615346 0.013473407
0.03262794 -0.025876759 -0.17353332 -0.120526165 -0.10084284 -0.10119562 -0.023696331 0.03643761
0.01304326 -0.10850845 -0.059266265 -0.009550045 -0.20245433 -0.13858204 -0.09496705 -0.03613849
0.09395834 -0.06531087 -0.018077826 -0.08905587 -0.11914419 -0.03765398 -0.05511046 0.026248626
-0.046692725 -0.05114352 -0.12576525 -0.0011400472 -0.1164826 -0.11358356 -0.0111420825 -0.10386793
-0.08784709 -0.1577757 -0.055611424 0.0691816 -0.007857817 -0.16422237 0.0863997 0.008040783
-0.07417388 -0.21988063 -0.090816714 -0.0026724145 0.12725264 -0.10470938 -0.086788505 -0.21962793
-0.13163608 -0.069808245 -0.2004629 -0.12693441 -0.13300571 0.110322185 -0.18057612 0.00887047
-0.0074926796 -0.10852178 0.06691672 -0.09852128 -0.12239161 0.039846297 -0.097197 0.19027436
-0.09155913 0.024834374 -0.105910815 -0.0003961614 -0.10542705 -0.12510106 -0.19874035 -0.09137377
-0.053562738 0.055507805 0.0012230368 -0.0203532 -0.025681641 -0.081683055 -0.19942145 0.031225946
-0.13008848 -0.040846463 0.08687831 -0.12228016 0.07139424 -0.003681199 -0.024670057 -0.0653363
0.0995308 -0.011535543 -0.037182376 0.05943517 0.006938879 -0.11502093 0.00936151 -0.058061358

fc2.weight f4 [256, 256]
00000000: c0b1 08be f951 41be cf00 07be 7c20 413e
00000010: 8aeb f73d 5208 2f3d 8657 fd3c 9559 0fbe
00000020: 4949 81be 08c5 ac3d c05b 49bd 00d1 53be
00000030: 4498 6bbd ea1d 6abd 915d 17bc 9aff 8c3e
00000040: 7e10 ef3d 85d8 b43d 0314 23be 3e2d 3fbd
00000050: 6b40 10bc 3d5b ad3d 027a 1dbe c5d0 e5bd
00000060: c85c 7d3d afa9 b1bd d4fb 44be ad73 e93d
00000070: 6c41 08be 21e5 48bc 2a37 88bd eb11 67bd
00000080: 85e6 7fbb 01bf 623d df6e 33bd bfcf 0d3c
00000090: f483 1b3d d666 81bd 301f 60bd 43c0 403d
000000a0: a5b0 5c3e 017a ad3d b81e 993c ffae a5bc
000000b0: 8bde d0bd 28f7 623d 0aba 153d e47b a53d
000000c0: 5448 e4bd 99d9 59be 9876 58bd df53 353e
000000d0: b5cd 47bd 5cb7 773d 04a0 e63d 8175 e6bb
000000e0: 176e 77bc 0d0e 6abd 05e7 c33c 5666 3abd
000000f0: 4fb8 a1be 67c8 16be 4a60 c9bd ff81 863d
00000100: 2532 22bd f9e9 da3c dad6 2d3b f779 aabd
00000110: 5494 d43c 2254 5fbe 0c12 c43d fc64 283d
00000120: ea08 fcbd b03b 02be fdd3 bdb9 1b7c f73c
00000130: 54ef 1c3e 9fe6 b0bd e370 643e eaa6 babd
00000140: bea6 153d 5eba e0bd 74f8 c3bd 9551 bf3d
00000150: 0201 04be dfd9 233c 6923 14be 8058 53bd
00000160: 1508 99bd 8500 73bd b6a4 20bd 38b3 8bbe
00000170: 6008 98bc 0dfb 003d 7f1b b5bd b4fc 26be
00000180: c53a 283d 4855 dabc 4dcb 5c3d 9bb9 013d
00000190: 29b5 f43b 496b e4bd ac0c c93d 2750 b0bb
000001a0: a925 68bd 3211 63bd 40b6 12bc e176 10be
000001b0: 3ac1 debc ed16 643e 9dd2 153d a918 c1bb
000001c0: 0bfe bebd 9e97 fabd a167 0cbe b1dd 0839
000001d0: 4c47 67bd 6964 fabc 8e97 51bd f2dc 6b3d
000001e0: 4346 dabc b049 75be 73d6 2ebc 39a2 d03c
000001f0: a3c0 13be 534c 00bd f7c4 073e ea41 12bd
00000200: d09d 72be 2e6d 463c bbae 01be 685b 0dbe
00000210: 0078 a3be 70eb 9c3d 330c 08be 49ff ebbd
00000220: 0863 a03d 1c37 33bd b63f 333e 3085 0b3d
00000230: 881a 4e3c 3981 a3bc 5d3e 52be dc63 9abd
00000240: 0db8 d4bd bfd1 e4bd c19d 613d edc3 c3bd
00000250: 30e7 8c3d 540b 58bc f1d4 9fbd 4fff 0b3d
00000260: e2a6 083e aa50 e63d dace 58be 317e 933d
00000270: 8ca4 60bc c36a 793b 7a03 d9bd 6717 bc3c
00000280: 1e32 37be fe4b 153d 3f8c b9bc 7fda 4b3d
00000290: aa5b 6fbd 2a1b 23be a2c9 3e3e da2e 8f3d
000002a0: 6c02 b4bd 9a8a 373e c1b4 013d fc50 d33d
000002b0: e655 e4bd 9cf8 3b3d f479 c43c 8c17 b13a
000002c0: dae8 ee3d 9f00 0d3c 2eb9 aa3d 8e2a 12be
000002d0: b213 95bd c2b6 c23d 1d6a adbd c3f8 09be
000002e0: 7f2e eb3d e160 41be 2721 4bbe d36a 0a3d
000002f0: 48a1 b5bd f737 0abe b4c8 773c ce63 30be
00000300: e2d0 683d ec16 fd3b 4cd7 54bd d0ce 063e
00000310: df13 303e 2d95 0fbd 3ad9 76bd 127b fc3d
00000320: e1a4 8a3a 1bce 57bc 1d97 afbd 6eda 513d
00000330: 7c7c d2bc 46df 5ebe 688f 2abe 1432 95bc
00000340: 62b5 e7bb 760a 873d bcb3 a4be 8545 c33d
00000350: 4775 2abe 2e2e e3bd 35ff ddbb 7238 56bc
00000360: b0f1 663e 604f 4a3d 26d2 7c3d 4261 17bd
00000370: 950d 8e3d 86b9 6f3d ec88 c2bd b2d4 8c3e
00000380: 3fd7 62bb c605 72bd 1bcf 0ebe 3559 4f3c
00000390: eb20 373e 6124 0ebe bc31 17bc 5ba5 c23c
000003a0: ef3b 85be 2be3 233c 5279 e2bd 64ef 813d
000003b0: c4b4 bf3d d579 823d b020 e13d e3b4 38bd
000003c0: 7178 07bc 4cf3 133d ec04 92bd 3eda d2bd
000003d0: b1a1 3d3e 42e5 983d 77a9 1a3e 2302 903d
000003e0: 550a 3a3d 0b3d 073e 56f4 d23d c5a2 9bbd
000003f0: 87ca 3b3e 86b9 083c 035e e03d c5f3 673c
-0.13349056 -0.18878926 -0.13183902 0.18860048 0.121054724 0.042732544 0.030925523 -0.13999017
-0.25251225 0.08436018 -0.049159765 -0.20685196 -0.05751826 -0.057157435 -0.009238617 0.2753876
0.116730675 0.0883036 -0.15925603 -0.046674006 -0.008804421 0.08464668 -0.15378574 -0.1122146
0.06185606 -0.08674943 -0.1923669 0.113990165 -0.13306206 -0.01226166 -0.06651147 -0.056413572
-0.0039047312 0.055357937 -0.043806907 0.008655488 0.037967637 -0.063184425 -0.054717243 0.047058355
0.2155176 0.08470536 0.018691406 -0.020225046 -0.10198697 0.055411488 0.036554374 0.08080271
-0.11146608 -0.21274413 -0.052847475 0.17707776 -0.048780162 0.0604776 0.11260989 -0.0070330505
-0.015101931 -0.057142306 0.02391387 -0.04550775 -0.3158593 -0.14724885 -0.09832819 0.065677635
-0.039598603 0.026722895 0.0026525767 -0.08324044 0.025949635 -0.21809438 0.09573755 0.04111193
-0.12306388 -0.12718081 -0.00036206833 0.030210545 0.15325671 -0.086377375 0.22308688 -0.091138676
0.03653597 -0.10973047 -0.09568873 0.093417324 -0.1289101 0.010000675 -0.14466633 -0.051598072
-0.07472245 -0.059326667 -0.03921958 -0.2728517 -0.018558681 0.03148942 -0.08843135 -0.16307336
0.041071672 -0.026651993 0.05390482 0.031671148 0.007467885 -0.111532755 0.0981687 -0.0053806487
-0.05667654 -0.05543632 -0.008954585 -0.14107849 -0.027191747 0.2227437 0.03657781 -0.0058928323
-0.093257986 -0.1223595 -0.13711406 0.00013052557 -0.05646448 -0.030565457 -0.051169924 0.057583757
-0.026644832 -0.23953891 -0.010671246 0.025467979 -0.14428954 -0.03132279 0.1325873 -0.03570739
-0.23693013 0.012110991 -0.1266431 -0.138044 -0.3192749 0.07662094 -0.13285904 -0.11523301
0.07831389 -0.04375373 0.17504773 0.034062564 0.012579568 -0.01995908 -0.20531602 -0.07538578
-0.103866674 -0.111728184 0.055082086 -0.09558854 0.06880033 -0.013186295 -0.07804287 0.034179028
0.1334491 0.11245854 -0.21172658 0.072018035 -0.013711106 0.003805802 -0.10596366 0.022960378
-0.17890212 0.036449425 -0.022649882 0.04976892 -0.058437027 -0.15928331 0.18631604 0.06991358
-0.087895244 0.17923966 0.03166652 0.10318181 -0.11149196 0.04589139 0.023983933 0.0013511046
0.11665507 0.008606105 0.083361015 -0.14274046 -0.07279147 0.095075145 -0.08467505 -0.13473801
0.11483478 -0.18884613 -0.19836865 0.03379328 -0.088686526 -0.13497911 0.015123535 -0.17225572
0.05683983 0.0077236798 -0.051963136 0.1316483 0.1719508 -0.035054374 -0.060265757 0.12328161
0.0010577702 -0.013171698 -0.085737444 0.0512337 -0.025694124 -0.2176486 -0.16656268 -0.018212356
-0.007071183 0.06593792 -0.32168376 0.09534744 -0.166463 -0.110927925 -0.006774808 -0.013074981
0.22553134 0.049392104 0.06172385 -0.036957987 0.06936184 0.05852654 -0.09498772 0.27506024
-0.003461316 -0.059087537 -0.13946192 0.012655546 0.17883651 -0.13881065 -0.009228166 0.023760488
-0.26022288 0.0100028915 -0.11058296 0.06344488 0.0936065 0.06370894 0.10992563 -0.045094382
-0.008268462 0.036120698 -0.07129845 -0.10295533 0.18518712 0.074656025 0.15103708 0.070316575
0.04542001 0.1320688 0.1030051 -0.07599405 0.18338977 0.0083450135 0.10955431 0.01415724

fc2.bias f4 [256]
00000000: b440 efbb b05c 46bd c903 2dbc 100a 96bd
00000010: 5425 013e 67cf 3aba 7df9 f8bd ad70 0bbc
00000020: 8389 c7bc c5e4 383e c3ac 223e 5c5d cfbb
00000030: 4e15 a53d 20cd 07be 28c1 9a3d 5a4b 353d
00000040: afd1 6cbc 2603 1fba c2e8 7fbd a96b 363d
00000050: ff3a e4bc 9c2d aebd 0887 cebc 9bd8 d6bd
00000060: e57c e83d bca2 10bd cc34 433c 06aa eabb
00000070: 112c 9fbd 1a95 aabd f49f babc f906 94bc
00000080: 85af 58bc 0cd2 d1bd a9a4 debd f0f1 c43d
00000090: b1ae b53b e512 3d3d edf8 913d ff3c 1ebd
000000a0: 2209 8a3d 7467 ddbc 84fa 9f3c 3882 8cbd
000000b0: dd78 ce3d 278c 003e 5b71 aa3c dd3b e93d
000000c0: 5380 8fbb 64a0 b23d ba89 86bb 2e72 34bd
000000d0: 6346 14bd e95b 76bd 5ccf 69bd b178 673d
000000e0: 3621 113e ff08 213b 1d05 bc3c aac1 a93d
000000f0: 850f 9dbb 362b 1cbd 0df9 37bd b0b9 8239
00000100: 51cb a63d d264 f4bd 2d0f ccbc e9eb 13bd
00000110: 7f17 a83d 3b7f 6abd b2eb 94bd 6e15 113c
00000120: 2dc0 71bd 8c5b ee3d 7fd9 18bc 3aec 823d
00000130: 52cf 5e3c 03fb 263e 2939 6fbd 85a3 59bc
00000140: fb30 38bd a894 2bbd aaeb 4bbd e1fa ddbc
00000150: 7af5 75bd 9043 bf3b 383e 4dbd 2490 8b3c
00000160: 00ca 243d c695 14be 74b4 d43d 1735 9b3c
00000170: 8b32 aebd 843b 48bd 363a 82bc a44a 97bd
00000180: eb28 363d 5b98 693d d664 7dbd 3a88 633d
00000190: 17d8 68bd d1d2 39bc 63ee 83bd 10e4 c739
000001a0: d634 cf3d fd3a c33b c47c b23d 120b 8a3c
000001b0: 8534 363d e417 2c3e a2a0 883d 8ace 81bc
000001c0: 9c74 ca3d 3775 f83d 6691 2bbd 76a5 ad3d
000001d0: fb43 733c f7f0 9dbd 0ea9 b2bd fb48 383e
000001e0: 8a3f f3bc 1e9c a7bb 6b12 c93d b721 3f3d
000001f0: 2bb7 90bd 107b 30bc 31c3 74bd 824f 39bc
00000200: 8431 42bd 2608 cabd 307d aa3d bef6 873b
00000210: f82d 9e3c 424e 963d 3474 6c3d 05e0 90bd
00000220: 78a1 77bd 71c4 f9bd 2367 9dbd 339b 4c3d
00000230: 41fa 94bc aeef 45bd 0705 00be 307b b5bd
00000240: c5ab 95bd d81c 0cbd 7146 63bd 681f 19bd
00000250: b3f8 babd 9e8f f13d 719f 6fbd b128 983b
00000260: 6697 a73d 12d8 74bd b3d4 043b 2071 fe3c
00000270: 7753 b93d da13 90bc 7517 fbbd ea07 cc3d
00000280: 79c4 993c 5267 833d 3fb5 003e 25ca 04bc
00000290: 9f06 bebd 3b45 233e a96b 0e3e 5872 243e
000002a0: 6730 abbd a112 c63c 7ffb 6fbd e996 603d
000002b0: f0d8 ed3b c641 193e 3749 52bd ce5d 85bd
000002c0: 2b15 1b3e 48fa a73c a13e 4ebd bc7c 5ebd
000002d0: 6ac9 f8bc 87b6 233e dac0 c33c 5379 4fbc
000002e0: 96a3 1dbd 5222 a83d 2d1d 5dbc e41e d5bd
000002f0: ecb5 b2bd 0b7b 013e 3661 8e3d ce62 0c3d
00000300: 387f 183e 6c0b 61bc 6293 9fbd b4eb 2d3e
00000310: 38a7 dfbd cbfc 98bd 3ae1 93bd d541 3f3d
00000320: db06 c23d 55d1 e8ba d5eb 77bd 1f32 cabc
00000330: 4f13 a1bc 079e 00be 02c4 5ebd 6d70 fdbc
00000340: 8f8a c8bd ec7e 663b 1e09 653c 9013 eb3b
00000350: b1eb 853c d19b 24bd cdcc 273e 90ec 18bc
00000360: 908d ba3d 9d36 243e ffe0 75bd 4018 9ebd
00000370: 21af 33bd 849e 0e3e b4ff bf3c 5dad e83d
00000380: ac97 033e bbc0 5c3d 102e 12bd 418c 753e
00000390: 6dd6 063e 599b 873e a5eb 1cbd 9a16 bc3d
000003a0: 6723 b23b f98a 153d 3fb8 52bb 23f6 a8bd
000003b0: 3323 90bd 07c2 133c 9a48 de3d b0d8 d03d
000003c0: e30e 9ebd 624c a1bd 4beb 7f3c 6ffb 43bc
000003d0: 30b7 c63c 7247 a7bd 37fa 88bc 306f b4bd
000003e0: f52e b23c 4fc5 e5bb 1ee5 1bbd 9bd8 1e3e
000003f0: 4144 beba 8c64 1e3e 46fb 693d ddc7 aebd
-0.0073014144 -0.048428237 -0.0105599845 -0.07326138 0.12611896 -0.0007126242 -0.12156961 -0.008510751
-0.024357563 0.18056019 0.15886216 -0.006328268 0.08060704 -0.13261843 0.07556373 0.044261314
-0.014454289 -0.0006065838 -0.062477835 0.044536266 -0.027860163 -0.08504793 -0.025210872 -0.10490533
0.11351947 -0.035311446 0.011914443 -0.0071613817 -0.07772077 -0.0832922 -0.02278135 -0.018069731
-0.013225441 -0.102451414 -0.1087125 0.096164584 0.0055445065 0.046160597 0.07127557 -0.03863239
0.06740023 -0.02702687 0.019528635 -0.06860775 0.100816466 0.12553464 0.020806005 0.11388371
-0.004379311 0.08721998 -0.0041057738 -0.044054203 -0.03619994 -0.060146246 -0.05708252 0.056511585
0.14172825 0.0024572012 0.022951657 0.082888916 -0.00479311 -0.038127147 -0.044915248 0.0002493388
0.08144248 -0.119332924 -0.02490958 -0.036113653 0.082076065 -0.057250243 -0.07271518 0.008855207
-0.059021164 0.11638555 -0.009329199 0.06392713 0.013599234 0.16306691 -0.05840412 -0.013283615
-0.044968586 -0.041889817 -0.049785294 -0.027097167 -0.060048558 0.0058369115 -0.050108165 0.017036505
0.040231705 -0.14510259 0.10385981 0.018946214 -0.08505734 -0.048884884 -0.015896898 -0.073872834
0.044472616 0.057030063 -0.061863743 0.055549838 -0.056846704 -0.011341766 -0.06441953 0.00038126158
0.101174995 0.0059579597 0.087152034 0.016850982 0.04448368 0.16805989 0.06671263 -0.015845556
0.09885523 0.12131732 -0.04188671 0.08478825 0.014847751 -0.07711976 -0.08723651 0.1799659
-0.029693384 -0.005115046 0.09817966 0.046663012 -0.070661865 -0.010771528 -0.05975646 -0.01131046
-0.047410503 -0.098648354 0.08324659 0.004149287 0.019309029 0.07339145 0.057728007 -0.07073978
-0.060456723 -0.12195671 -0.076856874 0.049952697 -0.018185737 -0.04832428 -0.12501918 -0.08861387
-0.07308153 -0.034207195 -0.0554871 -0.037383467 -0.09129467 0.11794971 -0.058501665 0.0046435227
0.08183174 -0.059776373 0.002026838 0.031059802 0.09049123 -0.017587591 -0.122603334 0.09962447
0.018770443 0.06416191 0.1256914 -0.008104836 -0.092786066 0.15944378 0.13908257 0.16059244
-0.083588414 0.024178805 -0.058589455 0.05483142 0.007258527 0.14966497 -0.051339354 -0.065120324
0.15144794 0.020505086 -0.050352696 -0.054318175 -0.03036948 0.15987597 0.02389567 -0.012663203
-0.038486086 0.08209671 -0.013495726 -0.104062825 -0.08726105 0.12644593 0.06952135 0.034273915
0.1489228 -0.013735633 -0.07791783 0.16984445 -0.10920566 -0.074700914 -0.07220693 0.04669364
0.09473964 -0.0017762581 -0.06052764 -0.024682103 -0.019662527 -0.12560283 -0.054386146 -0.030937398
-0.09792053 0.0035170866 0.0139792245 0.007173963 0.016347738 -0.04018766 0.16386719 -0.009333745
0.09109032 0.16036458 -0.060029026 -0.07719469 -0.043868188 0.13927656 0.023437358 0.113611914
0.12850827 0.05389474 -0.03568846 0.23979284 0.13167734 0.26485708 -0.038310666 0.091839984
0.005436349 0.036509488 -0.0032153276 -0.08250072 -0.07037964 0.009018428 0.108536914 0.1019758
-0.07717683 -0.07875897 0.015620063 -0.011961802 0.024257272 -0.08167924 -0.016720874 -0.0881027
0.021750906 -0.0070120464 -0.0380603 0.15512316 -0.0014516191 0.15468043 0.0571244 -0.08534215

fc3.weight f4 [128, 256]
00000000: 4d5f 393c 1435 3d3e 32fe cb3d 850e 75bd
00000010: f16d 0e3e 64c8 003e 6f7d e93b 935c e3bd
00000020: 5b85 aabc c3d4 813d 0090 113d 9654 86be
00000030: 6ff4 fcbd 63df bd3d 2e51 3bbc 85eb d6bb
00000040: ec60 503c fd18 20bc 9610 2abc 1186 fdbd
00000050: 98c1 98bd d5ac f7ba ad77 00be 5461 fd3c
00000060: dff6 993d 2801 adbd cf05 81bd 63c0 003e
00000070: d57d aabd add7 ce3d 5671 b13d 0646 813e
00000080: 9d69 d9bc c3b0 eb3d b5c3 9e3d 1c54 b4bb
00000090: 38a5 233d 0bc3 0fbe 5a94 a33c 67f0 1a3d
000000a0: 3b5d bb3d 7f79 30bd cfe9 653e afd9 0abe
000000b0: cab0 fabb 2e72 ae3c 4598 8c3d 56b5 463d
000000c0: 6656 9ebc 2eb1 e63b d7ae 03be 7828 923e
000000d0: 374f 3b3d b215 5f3d 55ef 34be 5a7c ea3d
000000e0: 2cda 01bd c608 fdbb b266 da3c d10c 943d
000000f0: 7133 cf3d 6f95 e93c 210e 843c 04c6 853c
00000100: 1714 063e 51d8 203d 441c 793e cf77 713d
00000110: 2d71 08be 80f7 243c 72e4 96bc e29c 1fbd
00000120: 10ae 37bd 603a 1fbe 89d4 5c3a 3710 cd3c
00000130: 0d04 24be 33c5 753c 5047 0c3e 33c1 933d
00000140: 064b ed3d e847 55bc a5ce 263d 64f2 39be
00000150: d6aa 203e 633c d23c 4445 2dbd 8a73 c93d
00000160: 6555 3e3b 4ac6 003e d4ea a2bd 04c2 9cbe
00000170: b5cc ffbb c7a3 e13d d941 613d 868e 923d
00000180: cd4d d23c a4a0 c2bd e6a6 5a3e a186 b2bd
00000190: a8a3 b53c 47ea 933d 1f45 d73d d5a0 bf3c
000001a0: 905d 80bd 8b15 51be 170c 643c f771 26bd
000001b0: 5bc3 70bd 1b4d 0ebe 1e8d 84bd 17e8 72bd
000001c0: 8c92 7cbd d921 27bd 8315 013d 6a57 18bd
000001d0: 8043 73be 5043 91bd e2e6 893d e966 d63d
000001e0: 5671 55bd 2076 c5bc a39b a83c b3f9 5d3d
000001f0: 2050 d1bc b30d e7be 0e65 34bd d7b6 e13c
00000200: 08de e4bb 6e00 2bbe 47fb 11be 317b 15bd
00000210: 91b7 c63c 7ecf 1b3e 81a9 403b 822d 6a3d
00000220: 7605 17be 195a aebd db60 08bf e5e6 9ebd
00000230: 83e8 f9bd f53e bf3e 87da f3bd 64ef 0fbd
00000240: 2d2c ea3c a5bf 3a3c cbfe 2a3d 63f1 f1be
00000250: 3a5f 44be bea2 8c3c fd89 d03c 060e 45bd
00000260: 7fdf 8fbd f516 9e3c 2455 2cbd 6fb2 3cbe
00000270: 8b55 31be 4b50 cdbd 305b 913b 8492 14be
00000280: 4d58 86bc 3bb0 c3be 0a49 c5bc 149e 5dbd
00000290: 9e1c 613d 07fb 263d c3c9 0d3c 67d1 1bbd
000002a0: 77ce 13bd 0059 183d f699 cebd a2da 0bbd
000002b0: 0ce7 a9ba 91d9 6abd 888e 11bd 7f00 193d
000002c0: 5aab c33d a1f6 ef3a bad5 3a3e fc53 64bd
000002d0: ea5d ba3d 6a97 e9bb ffed 13be 2221 a1bd
000002e0: 80df 26bd 7bee 0ebd 3b46 2f3d cccc 213e
000002f0: bc6a 813d ccfe 573d d37d 303d 57cb d83c
00000300: 8c9c 743d 7249 03be 68a9 07bd b867 81bd
00000310: 8c04 da3c afe6 11be e983 613e afb8 d73d
00000320: 017b 0f3d e1b6 433e 0865 abbd eafd 1c3e
00000330: 5676 c43d 43e3 07be 66f0 e2bb b517 5e3e
00000340: cf12 233e d25c 65bd 313e 86bd d534 af3d
00000350: fecb 13be e6f3 873d 2fed 4dbb 4a68 c03c
00000360: b9a3 313d 5054 15be f09f d03c 4acc c53d
00000370: 5ded 1f3d cd0e ddbd 7106 64bd f086 853d
00000380: e457 4fbd 7583 473e ac5b 3b3c fc56 543d
00000390: b455 85bd c107 b8bd 38a6 92bd 64bb 413d
000003a0: 1a2f 2abe 1579 d8bb 7604 b63e 268c 613d
000003b0: 1f4f 15be 0d77 8bbe 6cc0 c33d b336 c0bd
000003c0: 8601 cdbd b302 56bd 9454 113e dccc a4be
000003d0: 20a6 2bbe 305d 95bd 620e 063c d351 71be
000003e0: 89c3 57bc d227 1a3e bded 95bd 1585 a7bd
000003f0: 2e69 7d3d 0aff 09be 90f9 af3d 493c c9be
0.011314225 0.18477279 0.09960593 -0.0598283 0.13909127 0.12576443 0.0071255486 -0.111016415
-0.020815542 0.06339409 0.03553772 -0.2623641 -0.123513095 0.09271123 -0.011432929 -0.006558838
0.0127184205 -0.009771583 -0.010379931 -0.12379087 -0.074588 -0.0018896112 -0.12545653 0.030930199
0.0751779 -0.08447486 -0.06299936 0.1257339 -0.08324782 0.10099731 0.08664195 0.25248736
-0.026539618 0.11508324 0.07752172 -0.0055031907 0.039952487 -0.14039247 0.0199682 0.03782692
0.09148642 -0.043084618 0.22452472 -0.13559602 -0.0076504694 0.02129468 0.068649806 0.04851278
-0.019328307 0.0070401644 -0.12859665 0.285465 0.045729842 0.05446405 -0.17669423 0.114494994
-0.031702206 -0.007721993 0.026660297 0.07229007 0.101172335 0.028513638 0.016120018 0.016329773
0.13093601 0.039268795 0.24327189 0.05895215 -0.13324423 0.010068774 -0.018419478 -0.038967974
-0.044843733 -0.15549612 0.0008424004 0.025032146 -0.1601717 0.015000629 0.13699079 0.07214584
0.11586575 -0.013017632 0.040724415 -0.18158871 0.15690169 0.02566356 -0.042302385 0.098364905
0.0029042598 0.12575641 -0.07954946 -0.30616772 -0.0078063854 0.11017566 0.054994438 0.071560904
0.025671864 -0.09503296 0.21352729 -0.08717085 0.022172764 0.07222419 0.10511231 0.02339212
-0.06267846 -0.20418374 0.013918898 -0.04063603 -0.058780055 -0.13896601 -0.064722285 -0.05930337
-0.061663195 -0.040803764 0.031514656 -0.03719274 -0.23756218 -0.07092917 0.067334905 0.10468847
-0.05211004 -0.024104178 0.020582026 0.05419321 -0.025550902 -0.4512764 -0.044041686 0.027553005
-0.006984476 -0.16699383 -0.14256011 -0.036494438 0.024257453 0.1521587 0.0029397907 0.057172306
-0.14748177 -0.085132785 -0.5327279 -0.077588834 -0.12202551 0.3735272 -0.11906915 -0.03514041
0.028585518 0.011398231 0.041746896 -0.47254476 -0.19176951 0.017167445 0.025456423 -0.048109077
-0.0702505 0.019298056 -0.042073384 -0.18427442 -0.17317788 -0.1002508 0.004435919 -0.14509016
-0.016399527 -0.3822039 -0.02408268 -0.054105833 0.054958932 0.040766742 0.008654061 -0.0380415
-0.036085572 0.037194252 -0.100879595 -0.03414405 -0.0012962534 -0.057336394 -0.03553632 0.03735399
0.09554167 0.0018307754 0.18245593 -0.055744156 0.09099944 -0.0071286457 -0.14446257 -0.07867648
-0.04074049 -0.0348954 0.042791586 0.1580078 0.06319186 0.052733228 0.043088745 0.026464147
0.059719607 -0.12820986 -0.033120543 -0.06318611 0.026613496 -0.14248155 0.22022976 0.105332725
0.035029415 0.19112732 -0.083688796 0.15331236 0.09592883 -0.13270287 -0.0069256304 0.21688731
0.15925144 -0.055996723 -0.06554831 0.08554999 -0.14433286 0.06638317 -0.003142189 0.023487229
0.04336903 -0.14582944 0.02546689 0.09658106 0.039044727 -0.10793839 -0.055670206 0.06519878
-0.05062093 0.1948374 0.0114354305 0.051840767 -0.06510487 -0.08985854 -0.0716061 0.04729785
-0.1661953 -0.006606231 0.35550278 0.055065297 -0.14580964 -0.27239266 0.09558186 -0.09385433
-0.10010056 -0.052248668 0.1419242 -0.32187545 -0.1676259 -0.07293165 0.00818214 -0.2356637
-0.013169178 0.15054253 -0.073207356 -0.0817968 0.061867885 -0.13476196 0.08592522 -0.39303806

fc3.bias f4 [128]
00000000: 0e6b 363e 38de 093e 4c24 56bd c25c 813d
00000010: a7fe 4c3e 91a6 413c 9339 e5bd eb8f ffbc
00000020: 606f 063e 9f78 ebbb 3d50 3c3e 7119 1dbd
00000030: df02 bfbd e58e 833e 8a16 71bd 6109 f8bc
00000040: 38a6 6fbc 20ed 93bc 6a31 8bbe 793f 723e
00000050: 0c5a 92bd df18 853e 7278 c7bc 4436 743e
00000060: 9f6b 4c3d 36bd 28bd b1e0 7bbd b34a ae3c
00000070: a260 003e 8dde 05bc 5553 67bd c85b 60bb
00000080: 6339 1b3d 4c6c 63bb 950c ccbd ae50 57bd
00000090: 4672 89bd 061f 0cbd 9e62 76bd 889c 11be
000000a0: bd6d ca3c c98b e03d 8d36 b8bc 69e1 253e
000000b0: ebe3 213e 47f3 74bd c35e babd 10ef 693e
000000c0: 5ea7 01be b2b2 383e 2c51 28bc 4f14 123d
000000d0: 888e 2e3e 742b 53bd 6e1d 173e 596c bebd
000000e0: f55a d4bb 7bf1 263e e77c 773e beb9 d339
000000f0: 7c5d f2bc be23 82bd 6ec8 87bd da71 0c3e
00000100: ca91 a8bd 56ad 48bc 67ed 42bd fbee fa3d
00000110: c9e5 6b3d 7a24 293e 5383 1a3d 9e99 86bc
00000120: 3ff8 363e c671 983e ee39 ccbd 63ac 2d3e
00000130: 4151 803e 0fb0 683d 39f8 663e 2dca 69bd
00000140: 8919 a0bd 9c74 71be bcb8 8cbd 3bac e9bc
00000150: 5d78 88bd 618d 843e 73d8 57bc 18d7 ab3d
00000160: fd03 8fbd bb44 6abd 3422 043e e7c9 6e3e
00000170: 3e34 cb3c 285b dfbc 137b 33bd b5cb c0bc
00000180: f020 d03b 344b 34bc f2c3 ee3d 38f2 0f3e
00000190: 1b26 31bd d0d3 ee3a 1a72 6ebc 427a 4b3e
000001a0: 1213 943d 1f92 033e 5500 bb3c 39e3 20be
000001b0: 8955 1c3d 222f 55bd 6e33 13bd 5a8b 8c3e
000001c0: 9fcf 813e 3356 113e 2a13 26bd 4ff4 3b3e
000001d0: 0629 d2bc 59e7 6d3c bc33 7f3d 5f39 37bc
000001e0: fa4b db3c 240a 28bd 923b 80bd 79b0 06be
000001f0: f2d6 3abd 996e c03d cf4e 04bd b33b 1b3e
0.17814276 0.13463676 -0.05228071 0.0631652 0.20019017 0.011819498 -0.11192622 -0.031196555
0.13128424 -0.00718601 0.18389983 -0.03835434 -0.093267195 0.25694957 -0.058859386 -0.03027791
-0.014627032 -0.018057406 -0.27186137 0.23657025 -0.07146081 0.25995538 -0.024349425 0.23848826
0.049907323 -0.04119607 -0.06149358 0.021275854 0.12536862 -0.008170736 -0.056475956 -0.0034234393
0.037896525 -0.0034702 -0.09963337 -0.052567177 -0.06711249 -0.034209274 -0.060152642 -0.14219868
0.02471053 0.10964162 -0.02248695 0.16199268 0.158096 -0.05980232 -0.091001056 0.22845101
-0.12661502 0.18036917 -0.010273259 0.0356639 0.17046559 -0.051555112 0.1475732 -0.092980094
-0.0064805695 0.16303055 0.2416874 0.00040383445 -0.029585592 -0.063544735 -0.06630026 0.13715306
-0.08230932 -0.012248358 -0.047589686 0.12252613 0.057592187 0.16517821 0.037722897 -0.016430672
0.17868136 0.29774302 -0.09971987 0.16960292 0.25061992 0.056808528 0.22555627 -0.057077575
-0.078173704 -0.23579639 -0.06871173 -0.028524509 -0.066635825 0.25889114 -0.013174164 0.08390635
-0.069831826 -0.057194453 0.12903672 0.23319207 0.024805184 -0.027265146 -0.043818545 -0.023534635
0.0063515827 -0.011004258 0.11658467 0.14057243 -0.04324923 0.0018221084 -0.014553571 0.19870856
0.072302 0.1284871 0.022827307 -0.15711679 0.03816751 -0.052046902 -0.03593772 0.27450067
0.25353715 0.14193039 -0.04054562 0.18354915 -0.025654327 0.01452049 0.062305197 -0.011183112
0.026769627 -0.041025296 -0.06261362 -0.13153256 -0.045615144 0.09396095 -0.03230172 0.15159492

fc4.weight f4 [5, 128]
00000000: e833 99bd 29bd 2abe adf0 84bd 2eac 31bc
00000010: ba59 0bbe 4122 123b a1f1 b53d e408 15be
00000020: 6030 793d e2de ecbd c87d f6bc 34ce 983c
00000030: 060d 713d b063 9cbd 4d8c 1a3d 3894 303e
00000040: 9532 883d a6b5 efbd 912a 0b3e cac0 8e3d
00000050: b80d 9dbc 6c97 b4bc e463 2c3e c636 c6bd
00000060: 1e4b 703c ce2a 9fbc 2574 d23d 6432 e9bc
00000070: 440a e5bd 84da 0f3d f54c e9bc cc6a 7a3c
00000080: e124 71bd ebc2 023e aa9f 6bbb 9b97 083e
00000090: 4d8a 363d 6bee e33c 4138 353a 0ffb d43d
000000a0: 375e 893b f52e 083e 1e11 3c3e c6ac febd
000000b0: 585b 5c3d a6d7 31bd c369 5a3d 17ba dbbd
000000c0: f5aa febc 8e83 d9bd 5d6a 063e 0ff1 e93d
000000d0: 4ca9 ccbc 8212 e6bd 2b89 b6bc 695c 47bc
000000e0: 5be3 05be 23b3 59bd f91a cebd cf13 ecbd
000000f0: e6a9 403d 2f01 163c f379 e73d 755c d1bd
00000100: 91d4 8cbd 8002 953c bc88 ebbd 2255 9bbd
00000110: b60b 853d ee55 873c feda 1cbd 4d90 d13d
00000120: f3df 07be b7d8 cabd 203a aebc 16a5 b6bd
00000130: c1a7 15be 5cb1 263e 00fd c2bd 4848 083c
00000140: 6a3d 4dbd 548a 3c3e 6a87 48bd 984f 7f3d
00000150: 0ba8 15bc 4fbb 94be 80a9 393d e156 583d
00000160: 41b7 a0bd 7705 2fbd f7e0 bdbd 1e80 b0bd
00000170: 9cb1 afbd 715f 023d 502f 843d 8f8e 883d
00000180: 5657 ac3b 20f8 1c3d ab0c e0bc 060d b2bc
00000190: 00c5 cc3d 686a f53c 05ae 93bd 19b2 bdbd
000001a0: 580a dc3c 3b66 94bd 84de 193e 32b8 0f3e
000001b0: 445a 363e 617f ac3d 5826 ebbd d357 b4bd
000001c0: f017 14bd c6be 9fbd d0a2 13bd faeb 01be
000001d0: 2833 e93d 8d14 8d3d a3cd 04be 458e 5bbd
000001e0: 5981 23bc ae19 8c3d f002 793d 7203 513d
000001f0: fbe1 da3c b0c6 5bbd 67b9 19bd 87da 9cbd
00000200: cff7 50bd 0392 88bc 8cd9 443c 057d edbd
00000210: 1f0f cfbd 1fd0 663c 7951 2d3e 18cc 2e3e
00000220: 6693 a0bd fcb3 e83d eaf7 7ebd 4a58 92bd
00000230: a5fe 003d a022 20bd 0f35 233d c73f 023e
00000240: 9d51 0abd 6f3a eabd 94bb 533e e484 e2bd
00000250: 0288 2c3d 19fa 89be c6b5 8e3d 001e 08be
00000260: d24e d03c a64f 353b 936f d13d 0f9a 0cbd
00000270: 8056 b3bc 5260 543d 88f5 923d ea63 fcba
00000280: b04f 63bc 6e4b fdbd a6a4 183d a075 433e
00000290: b757 aa3d cd72 593c 961c 513d a277 433e
000002a0: 07af 703d 4586 8dbd c91e a73d 40ec 6dbd
000002b0: 2d19 e5bd fd7a f1bc bd15 60bd bd68 8dbd
000002c0: 65c0 883d bb0d 8ebd aede 103e bbda f83d
000002d0: 6c39 d33b fe17 953d f79c fcbd 2f5f 193e
000002e0: 56b4 20bd b81a a9bd 7673 cebd 4820 a7bd
000002f0: 5c63 8e3c 91ac 3b3b 447b 02bd dbab 05bd
00000300: a979 7b3d bf6e f13c 30e7 f8bd f6ff 34bd
00000310: fcae 72bd 64d6 e2bc 52b2 2abd eb33 a43d
00000320: 5f55 02be ee93 c0bd 0149 313d f2b3 d4bd
00000330: 8442 d1bd d5db fc3d f1c9 c0bc 4e0f 34bd
00000340: 9983 f53c c8d5 003e 36e6 ac3c d75b 053d
00000350: 5941 823e df7f 513d 77c1 853d ab3f b73d
00000360: c16c f93c 751e 863d 6fcc 20be 8b85 f2bd
00000370: f7c1 81bd 4953 f0bb ba8f b3bd 427a d13c
00000380: a50a d2bc abaf 693c 9b5a 1cbd da5b 4a3c
00000390: f6e8 003e ac47 b0ba 18a4 98bc a4ee d9bd
000003a0: e96f 5b3e ef60 91bd edea 1d3e 119f 1bbe
000003b0: 09c6 05bc d103 303e aee8 79bd 9ac3 9abd
000003c0: 5bc9 bebd 57ea 25be 2f96 bb3c 0283 0bbe
000003d0: 3005 913d d3ff 82bd c860 cfbd 2a98 1c3d
000003e0: 5c2a 283d 1111 92be 156f fe3b 1713 943d
000003f0: 14e3 a2bd d767 073d fdfb 503c 534f f5bd
-0.074806035 -0.16673721 -0.06491218 -0.0108442735 -0.13608447 0.002229825 0.08883978 -0.14554173
0.06083715 -0.11565949 -0.030089274 0.018653013 0.05885031 -0.076362014 0.037731458 0.17244041
0.06650273 -0.117045686 0.13590457 0.06970365 -0.01917158 -0.02204486 0.1683498 -0.09678416
0.014666347 -0.01942959 0.10276059 -0.028466411 -0.11183599 0.035120502 -0.028479079 0.015284251
-0.05887306 0.12769668 -0.0035953321 0.13339083 0.044565488 0.027823647 0.00069129845 0.10399448
0.0041921395 0.13299163 0.18365905 -0.12435298 0.05379805 -0.04341855 0.05332352 -0.10728853
-0.031087378 -0.10620795 0.13126512 0.114229314 -0.02498307 -0.11233999 -0.022282204 -0.012168028
-0.1307501 -0.053149354 -0.100637384 -0.11527216 0.047037028 0.009155556 0.11302557 -0.10222713
-0.06876481 0.018189669 -0.115006894 -0.07584597 0.06496374 0.016520467 -0.038294785 0.10232601
-0.13269024 -0.09904616 -0.02126795 -0.089182064 -0.14614774 0.16278595 -0.09520912 0.008318014
-0.050107397 0.18412143 -0.048957266 0.062331766 -0.009134303 -0.29049155 0.045327663 0.05281723
-0.07847453 -0.04272982 -0.09271424 -0.086181864 -0.08578798 0.0318293 0.06454337 0.06667816
0.0052594347 0.038322568 -0.02734979 -0.021734726 0.09998512 0.029957965 -0.07210926 -0.09262485
0.026860401 -0.072460614 0.15026289 0.14035109 0.17807871 0.08422733 -0.11481923 -0.08805814
-0.03615564 -0.07800059 -0.036043942 -0.12687674 0.113867104 0.068886854 -0.12969069 -0.053602476
-0.009979569 0.068408355 0.060793817 0.051028676 0.026719084 -0.05365628 -0.03753033 -0.07658868
-0.05101758 -0.016671186 0.012014758 -0.11596111 -0.10110306 0.014087706 0.1692561 0.17070043
-0.07840614 0.11362454 -0.062248148 -0.07145746 0.031492848 -0.03909552 0.039845522 0.12719642
-0.03376924 -0.114369266 0.20677024 -0.11060503 0.042121895 -0.26948622 0.06968264 -0.13292694
0.02542821 0.0027665882 0.10226359 -0.03432661 -0.021891832 0.05184967 0.071757376 -0.0019255851
-0.013873979 -0.12367903 0.037266396 0.19087839 0.083175115 0.013272 0.051052652 0.19088605
0.05876067 -0.069103755 0.08160169 -0.058086634 -0.111864425 -0.02947759 -0.05470823 -0.06904743
0.06677321 -0.06936213 0.14147446 0.121510945 0.006446054 0.07279967 -0.12334626 0.14977716
-0.03923448 -0.08257049 -0.10080616 -0.08160454 0.017381363 0.0028636793 -0.031855837 -0.032634597
0.06139532 0.029471753 -0.121534705 -0.044189416 -0.05924891 -0.02769012 -0.041673966 0.08017715
-0.12727879 -0.09403215 0.043282513 -0.10385884 -0.10217765 0.12346617 -0.023533793 -0.04395991
0.029969977 0.12581551 0.021105867 0.03255829 0.2544048 0.051147338 0.06531041 0.089476906
0.030447366 0.06548778 -0.15702985 -0.118418775 -0.06335824 -0.007334147 -0.08767648 0.025570992
-0.025639841 0.014263074 -0.038172346 0.012351001 0.12588868 -0.0013449094 -0.018632933 -0.1064122
0.21429409 -0.07098567 0.15421648 -0.15197398 -0.008164891 0.17188956 -0.061012916 -0.07556839
-0.09315749 -0.16202675 0.022898762 -0.13624194 0.070810676 -0.06396451 -0.101258814 0.038231052
0.041056022 -0.28528646 0.007764707 0.072302036 -0.07953468 0.033058014 0.012755391 -0.119780205

fc4.bias f4 [5]
00000000: 4236 31be dd12 0dbe 1877 4bbe 34a6 f5bd
00000010: 964d 24be
-0.17305854 -0.13776727 -0.1986965 -0.11994591 -0.16045222
