Models/5x5_model.pth (torch, 560512 bytes, 8 tensors)

fc1.weight f4 [256, 155]
000000 af 20 b1 bf 44 d4 ca bf 0f 8d 3d 3d 86 ba e7 bf
       -1.3838099 -1.5846028 0.046277102 -1.8103797
000010 e0 1f a5 bf b6 fa b6 bf f7 27 b4 bf 7d da 69 40
       -1.2900352 -1.4295261 -1.4074696 3.6539605
000020 b8 4d eb bf 67 8f cd bf df 6e 16 bf 6f e8 5f bf
       -1.8383093 -1.6059388 -0.58762926 -0.8746404
000030 1c bf 53 bf 16 5f aa 3e 7f bc 89 3e 67 82 70 bf
       -0.82713485 0.3327567 0.26901624 -0.9394898
000040 22 5f a6 be 2f 91 e1 be 2a 50 57 3f ca 46 03 bf
       -0.32494456 -0.4405608 0.84106696 -0.5127989
000050 93 3d 4f bf ab 6c d7 be 33 4e 6b 3f 60 a2 7c be
       -0.8095333 -0.42075095 0.919162 -0.24671316
000060 6e f5 b6 be 72 ac 48 be 6b 5c 01 be d5 cc fd 3d
       -0.35734123 -0.19597033 -0.12632911 0.12392584
000070 b8 c6 b1 3e 3b c5 3d be be 03 a0 be 09 3e 8f 3e
       0.34721923 -0.18532269 -0.31252855 0.27977017
000080 4c d8 04 c0 b8 86 14 3f 2e 60 a1 bc be b4 62 bd
       -2.0757017 0.58018064 -0.019699182 -0.05534815
000090 e2 a0 db 3d 5d 30 39 3e c5 56 26 be 68 fd 7f be
       0.10724045 0.18084855 -0.16244037 -0.2499901
0000a0 3d 63 94 bc ca 0c 8b bc 52 9f e1 3b e6 e3 53 be
       -0.018113727 -0.016973872 0.0068854475 -0.20692405
0000b0 59 d5 c2 bd 73 63 43 3c 28 f0 c8 be 42 81 2f bf
       -0.09513349 0.011925566 -0.39245725 -0.68556607
0000c0 f6 ea 95 3d 70 ee 95 be 13 0c f9 3b e6 a7 b2 bd
       0.07320206 -0.29283476 0.0076003163 -0.0872343
0000d0 ff d2 71 3d 85 13 b8 bd 4b d2 e4 3c 2e 0d cd bd
       0.059039112 -0.08988098 0.027932307 -0.100122795
0000e0 16 31 0c 3e 5d 84 bf 3d 15 a6 a8 be de 80 f9 bd
       0.136906 0.09351418 -0.3293921 -0.121827826
0000f0 53 09 cf bd 44 49 3b bc 0f 8c 63 bd 9c 6d 96 bd
       -0.101092 -0.011431042 -0.055553492 -0.07345125
000100 ac a2 14 bd 1b ad 2e 3d 47 4d 5f 3c 81 b1 85 bd
       -0.03628795 0.042645555 0.013629264 -0.06527997
000110 8d 9b 86 bc dd a6 2d bd 8e 4e f2 3d a1 f1 4a 3d
       -0.016431594 -0.04239546 0.11831389 0.04954684
000120 94 47 ca bd 10 a5 b0 bc a8 3e dc bc 92 bf 1c bd
       -0.09876934 -0.021563083 -0.026885346 -0.038268633
000130 b1 4b 07 be 5b 59 58 3d 95 5d 37 3e 2c ce 16 3e
       -0.13212468 0.05281959 0.17906792 0.14727086
000140 7d 9a 6d 3d ac 18 ad 3e 6b 62 69 bf 2a 1c 18 3d
       0.05800866 0.33807886 -0.911658 0.037136234
000150 20 1f 16 3d b0 09 9c bc eb ee 4b bd 47 dc 79 bc
       0.036650777 -0.019047588 -0.049788397 -0.015250272
000160 e8 d6 8e bd 93 1d e9 3d 3f 6a 50 be e2 69 58 3e
       -0.06974584 0.11382594 -0.2035303 0.21134141
000170 77 1f 42 3e 07 88 fd bd d2 9d 63 be 82 10 81 3e
       0.18957315 -0.12379461 -0.22228172 0.25207907
000180 47 aa fa 3d a7 a9 86 be 77 51 f4 3c c3 50 0f bf
       0.12239509 -0.2630131 0.029824002 -0.5598261
000190 3b 57 72 3b 7d 29 a1 3d 77 03 ce 3c 78 68 f2 bd
       0.0036978263 0.078692414 0.025148137 -0.11836332
0001a0 f0 85 4d be e2 85 3c bd 10 81 35 bd 83 44 94 bd
       -0.20070624 -0.046026118 -0.044312537 -0.0723963
0001b0 e0 6c a5 3d cb c1 bf 3d 7a bf 7b bd 63 59 d6 bd
       0.08077407 0.09363135 -0.061461903 -0.10466268
0001c0 b2 d5 5d 3d 95 8b e5 bc a8 7e 04 3e 3a 40 9c 3c
       0.054158874 -0.02802066 0.1293894 0.019073594
0001d0 96 3f 3b bd 36 d6 cf bc be bd 47 bb 41 07 cb bd
       -0.045714937 -0.025370698 -0.0030478085 -0.09913493
0001e0 63 9f c8 bc 8a bf da be 36 25 b7 3d de a9 02 3e
       -0.024490064 -0.42724258 0.08942644 0.12760112
0001f0 13 84 87 bb b2 4a 2c 3e ee 5c dc 3d 30 82 9d 3d
       -0.0041356175 0.16825369 0.107599124 0.07690847
000200 f3 da fa 3b bd 21 9d 3d d4 c8 e3 bd 0a 00 93 bd
       0.0076554953 0.07672451 -0.11122289 -0.07177742
000210 5c c8 31 be ee ba 8f bd 99 c2 9b 3d 2f 5d 0e 3e
       -0.17361587 -0.07018076 0.07605476 0.13902734
000220 d3 89 71 be a3 ce 2d bc 21 db 05 3e 84 e6 df bc
       -0.23587732 -0.010608348 0.13071872 -0.027331598
000230 88 7f 2f bd a5 64 2c bc d8 15 3f be ee b9 0a be
       -0.042846233 -0.010522042 -0.18660676 -0.13547489
000240 8c 66 a8 3c 00 72 f2 3c 5a 54 6e 3d 62 1a 0f 3d
       0.02055671 0.029595375 0.058185913 0.03493727
000250 2a d3 4f 3d 77 37 a3 3d 75 03 80 3e 1f 3a bf bf
       0.05073849 0.079695635 0.25002638 -1.4939612
000260 3b d7 9c 3c 6c ee 92 bf 0f 21 97 3e ce fd 74 bf
       0.019145599 -1.147901 0.2951741 -0.95699775
000270 3c e0 7f bf 20 62 a3 bf 05 48 a2 3e c8 15 a9 3f
       -0.9995153 -1.276432 0.31695572 1.3209772
000280 b3 6c 90 bf 54 7b 50 bf a0 45 0e bf a8 40 12 be
       -1.1283172 -0.81438184 -0.5557499 -0.14282477
000290 59 a6 64 3f cb 2e a5 bf 89 dc bb bf da eb 48 40
       0.89316326 -1.2904905 -1.4676677 3.1393952
0002a0 1c 81 ff be 5c 21 b0 3e 82 14 c6 bf 89 49 c1 bf
       -0.4990319 0.3440045 -1.5475008 -1.5100566
0002b0 8a 29 c5 be ed 0a 74 3f 6e 0b a5 3f 66 89 b6 bf
       -0.38508254 0.9532917 1.2894113 -1.4260681
0002c0 78 9e 4e bf 6b 1f 1c 3d b3 49 f3 3e 59 09 d4 3b
       -0.80710554 0.0381159 0.47517166 0.006470841
0002d0 a5 93 0f 3e df 54 93 3e c3 e2 52 3d a7 68 4f be
       0.14021166 0.2877569 0.051485788 -0.20254765
0002e0 e4 b9 d4 be d4 5f 99 3e 08 84 7c bc 75 b4 2a 3e
       -0.41548073 0.29955924 -0.015412338 0.16670401
0002f0 4e 9b aa bd 4a b6 61 be c8 c5 62 3e 4e dd 17 3f
       -0.08330403 -0.22042194 0.2214576 0.5932206
000300 e6 f5 a3 bf 95 01 01 3f d4 87 85 3e 9a f0 94 be
       -1.2809417 0.5039304 0.2608019 -0.29089814
000310 1b 5b dc 3e 7d f0 a0 3e 6e 74 03 bf e8 56 17 be
       0.43038258 0.31433478 -0.5134953 -0.14779246
000320 db 8b bf be 1b 8a 9b bd e0 95 85 3e 31 cc 57 bf
       -0.3741139 -0.07594701 0.26090908 -0.84295946
000330 51 6b b6 3e 4c 2f 93 be 18 a5 0a bc 37 30 11 3d
       0.3562875 -0.28747022 -0.008462213 0.035446372
000340 29 f1 68 be 71 62 12 3d ba e3 b1 3c de 21 e9 bc
       -0.22748245 0.035738412 0.021715034 -0.028458532
000350 c9 64 91 3d 2f 72 e6 3c d9 a3 76 3c 16 a0 03 bc
       0.07099301 0.028130619 0.015053713 -0.008033773
000360 7f 47 89 bd 8e da b8 bd 23 ea 92 3d 25 17 85 be
       -0.0670309 -0.09026061 0.07173564 -0.2599422
000370 5d 72 94 be c4 31 07 3e 69 b0 8f be 8d 38 5d bd
       -0.28993502 0.13202578 -0.28064278 -0.05400901
000380 c2 bd 06 3d 53 b3 d0 bd ee c1 63 3e 92 0a 9c 3d
       0.03289581 -0.101904534 0.22241947 0.076192036
000390 a9 dd 02 3e 83 83 b7 bd 9c 88 f6 bb fa 27 0a 3e
       0.12779869 -0.08960631 -0.0075236093 0.13491812
0003a0 ef 9e 80 3e f9 eb c0 3d 1f 80 77 be 42 f8 2f 3d
       0.25121257 0.09420008 -0.24169968 0.042961366
0003b0 b7 40 39 3e f8 34 95 3e ae 7d e0 3d 66 b5 1b be
       0.18091093 0.29141974 0.109614715 -0.15205917
0003c0 cb ad 96 3c f0 cf ac 3e 0c 10 5c bf a9 89 ab 3e
       0.018393418 0.33752394 -0.85961986 0.33503464
0003d0 c3 f1 50 3e 0b 6b e6 bc 1c 89 38 3e ca d0 89 bd
       0.20404725 -0.028127214 0.18021053 -0.067292765
0003e0 a2 c2 d3 bd 77 84 64 be 18 92 c7 bd 0f cd 21 3d
       -0.10339858 -0.22316156 -0.09744662 0.0395022
0003f0 7f c7 9c be b4 82 c8 be 49 f9 a7 3d 93 c9 8a 3d
       -0.30620953 -0.3916222 0.08201844 0.067767285

fc1.bias f4 [256]
000000 21 39 1c be 74 2c c1 be bd 15 d5 be 0b fa 10 bf
       -0.15256168 -0.37729228 -0.41618147 -0.56631535
000010 0b a7 20 3e 74 30 30 bf 42 97 64 bf 08 de 87 be
       0.15688722 -0.68823934 -0.892933 -0.26536584
000020 14 37 10 bf a3 7a 56 be ad 55 fd be 1e 2c 9e be
       -0.5633404 -0.2094522 -0.49479428 -0.30893034
000030 54 27 61 bf 93 f1 95 be c7 e3 98 be 28 76 11 bf
       -0.87950635 -0.2928587 -0.2986128 -0.5682092
000040 09 14 fe bd 43 88 a1 be 11 25 5e bf a8 1d 2c bf
       -0.12406165 -0.31549272 -0.8677531 -0.6723275
000050 c1 b4 e2 be 8c 65 2a be ab eb 4e bf e6 7d 4e bf
       -0.4427853 -0.166403 -0.8082835 -0.80660856
000060 46 9b 06 bd b0 09 9e bd 5f d4 2d bf db dd c5 be
       -0.032862924 -0.077166915 -0.6790218 -0.38645825
000070 56 39 98 be 5c 06 1a bf 3d 5b 5e bf 20 e9 c1 be
       -0.29731244 -0.60165954 -0.8685797 -0.37873173
000080 68 43 84 be bd 38 4f bf 61 a6 97 be 8f a8 cc be
       -0.25832677 -0.8094595 -0.29619125 -0.3997235
000090 12 6d e9 be cd e7 d8 be 32 48 10 bd db 8c 54 bf
       -0.45591027 -0.4236435 -0.0352251 -0.8302743
0000a0 36 3b bf be fc 55 dc be 70 9c 6e bf f1 55 47 bf
       -0.37349862 -0.4303435 -0.93207455 -0.7786551
0000b0 93 8f 20 bc 40 9c 4a bf d3 8d 0f bf 15 ed 5a bf
       -0.009799856 -0.7914467 -0.5607578 -0.8551801
0000c0 9f 0e 46 bf 7c f1 36 bf 93 c2 35 bf c8 6e 39 bf
       -0.7736606 -0.71462226 -0.7100002 -0.72434664
0000d0 77 76 47 be 8d 93 72 bf 2b ac 05 bf 0b ee a4 be
       -0.19478785 -0.94756395 -0.5221583 -0.32212862
0000e0 16 64 1a 3c 28 b0 64 bf 3b 66 34 bf 84 a1 28 be
       0.009423276 -0.89331293 -0.7046849 -0.16467863
0000f0 7f f4 fe be 67 54 df be ff 87 49 bf 6d 92 b3 be
       -0.4979591 -0.4361908 -0.7872314 -0.35072652
000100 c3 e5 2e be fb 2c 47 bf 91 fc 34 bf 9c ed 20 bf
       -0.17079835 -0.7780301 -0.70697886 -0.62862563
000110 53 f3 a4 be b3 d8 fc be 4f 23 13 bf f6 2d 4f bf
       -0.32216892 -0.49384078 -0.5747575 -0.80929506
000120 db b2 5f bf 1c 9d 1e be 0e f2 63 bf cb 14 00 bf
       -0.87382287 -0.1548962 -0.8904122 -0.5003173
000130 1b 16 80 be a4 2a 9d be 37 a3 d7 be 9a 1d a1 bb
       -0.25016865 -0.30696595 -0.4211671 -0.004916859
000140 ce 84 18 bf d4 c9 bc be a1 a0 47 be e3 bf 1b be
       -0.59577644 -0.36872733 -0.19494869 -0.15209918
000150 4a b6 33 bf 51 03 97 be 17 f9 44 bf dd 82 22 be
       -0.70200026 -0.29494718 -0.7694258 -0.15870233
000160 c8 87 a1 be db aa 5b bf 59 ca 6d be 16 3f e9 be
       -0.31548905 -0.8580758 -0.23221721 -0.45555943
000170 43 e7 38 be d4 33 5c bf d3 71 95 be 04 7c 2a bf
       -0.1805697 -0.86016583 -0.29188403 -0.6659548
000180 5e 4a 0c be 40 1b 1e bf dd 97 58 3d a4 05 27 bf
       -0.13700244 -0.6176033 0.052879203 -0.6524298
000190 4c 92 d4 3c b4 a3 41 bf 51 dc 2b bf 7b f7 63 be
       0.025948666 -0.75640416 -0.6713305 -0.22262375
0001a0 8b 25 9e 3e 18 3f 92 be 2b de 08 bf 1b 57 dd be
       0.30888018 -0.28563762 -0.53464 -0.4323052
0001b0 e0 75 97 be 83 98 ee be 74 b2 ef be ce 26 65 bf
       -0.2958212 -0.46600732 -0.46815836 -0.89512336
0001c0 89 98 a1 bd ef b9 41 be 17 e2 98 be 23 46 29 bf
       -0.07890422 -0.18918584 -0.29859993 -0.66122645
0001d0 b2 5b a8 be 4f db 4f bf d0 cf 86 be db 34 19 bf
       -0.32882458 -0.81194013 -0.26330423 -0.59846276
0001e0 3a 16 5c bf e4 19 a7 bd c1 27 35 bf 86 17 0b bf
       -0.85971415 -0.08159235 -0.70763785 -0.5433277
0001f0 9e 86 ce be e6 9f 53 bf 7f 19 d6 be 3c cf 09 bf
       -0.4033708 -0.8266586 -0.41816327 -0.5383184
000200 19 33 0c bf 20 11 1a bf da c9 e9 bd 34 1e b9 be
       -0.5476547 -0.6018238 -0.11415453 -0.36155856
000210 d1 13 68 bf 91 e0 2c be c9 62 21 bf a0 64 f7 be
       -0.9065524 -0.1688254 -0.6304136 -0.48318958
000220 d1 ad 12 3e 88 23 44 bf 82 20 ab 3d c2 a7 ed be
       0.14324118 -0.76616716 0.0835581 -0.46417052
000230 06 fd 32 bf c6 e0 fe be 9b 30 c9 be ce dd 11 be
       -0.69917333 -0.49780864 -0.39294896 -0.14244768
000240 42 f4 f4 bd b4 cc 6d be af 75 22 bf 72 f1 25 bf
       -0.11960651 -0.2322262 -0.6346082 -0.6482154
000250 c8 e2 5b be f9 6f b8 be 88 7d 90 bd 32 2a fc be
       -0.21473229 -0.36022928 -0.07055193 -0.49250942
000260 c2 c6 46 bf e3 24 06 bd af 5c 5b 3c 6a ed 07 bf
       -0.7764703 -0.03275002 0.013388797 -0.5309664
000270 81 94 46 bf ce f9 9d be aa 9a 19 bf 81 6f 1b bf
       -0.7757035 -0.30854648 -0.60001624 -0.60717016
000280 a8 c2 ad be 46 b0 30 bf 37 99 13 bf 30 cc 31 bf
       -0.33937573 -0.6901897 -0.5765566 -0.6945219
000290 54 b4 63 bf de aa 9d be 2f f9 7a bf 5d 88 ca be
       -0.88947034 -0.30794424 -0.98036474 -0.39557162
0002a0 17 15 30 be ca 27 8f be ab 8c 4a be ad 68 f2 be
       -0.17195545 -0.27960044 -0.19780223 -0.47345486
0002b0 05 a2 c2 be 6c a5 55 3d 20 04 80 be 7f 52 db be
       -0.38014236 0.05215971 -0.25003147 -0.42836377
0002c0 69 91 2c bf 89 e2 42 bf 1c f6 5d be 09 9a 36 bf
       -0.6740938 -0.76126915 -0.21675915 -0.7132879
0002d0 eb f0 b7 be e9 79 0c bf cb 88 e3 be 2f bc 3e bf
       -0.35925993 -0.5487352 -0.44440302 -0.74505895
0002e0 b9 ca 14 bf c0 6f 48 3e 12 20 a5 be ee 1f 3d be
       -0.5812183 0.19573879 -0.3225103 -0.18469211
0002f0 48 1b b4 3e 9f 47 56 bf d7 fb 07 bf 3d 22 0e bf
       0.35177064 -0.83703035 -0.5311865 -0.55520993
000300 16 e5 87 3e c3 9c 9d 3e f2 27 7c be 0b 24 a2 be
       0.26541966 0.30783662 -0.24624613 -0.31668124
000310 22 52 1b bf 2d 3b 35 bf 49 ff 9d be ae 0e f9 bd
       -0.606722 -0.7079342 -0.3085883 -0.12161003
000320 1a e0 3d bf ea 6b e2 be f0 5a 0f bf 10 b5 34 be
       -0.74170077 -0.44222957 -0.55998135 -0.17647195
000330 49 8b 24 bf 68 16 7a be a4 a4 ea be db 85 50 bf
       -0.6427503 -0.2442261 -0.45828736 -0.8145425
000340 91 da 03 bf a9 bd 2a bf 11 1b 5d bf 9a ba 10 bf
       -0.5150538 -0.6669565 -0.86369425 -0.5653473
000350 38 88 af be dc 0b b4 bd 00 72 9e bd 40 69 8c be
       -0.34283614 -0.087913245 -0.077365875 -0.2742405
000360 e1 8e 3a bf 44 94 1c bf 45 94 30 bf 7d bc 27 bf
       -0.72874266 -0.61163735 -0.6897624 -0.65521985
000370 06 5b 56 bf dc 01 3c bf 7a cb 9f 3e 4a e1 62 be
       -0.8373264 -0.7344034 0.31209928 -0.22156253
000380 ed ae 9f be 35 18 57 be c4 7e 12 bf 4b bd 80 be
       -0.31188145 -0.21005328 -0.5722468 -0.2514442
000390 a3 89 08 bf db f7 49 be 52 1e cf be 84 fb 38 3e
       -0.53335017 -0.19723456 -0.4045282 0.18064696
0003a0 d3 20 8f be 70 a0 06 be 71 4e fe be d7 a3 bf be
       -0.2795473 -0.1314714 -0.4966922 -0.37429687
0003b0 cf 6e f8 bd ec 42 17 bf bf c8 31 bf 5a 1d 00 bf
       -0.1213051 -0.5908649 -0.6944694 -0.50044787
0003c0 e1 a3 38 bf e5 93 38 bf 6e 99 cb be 42 37 c9 be
       -0.7212506 -0.7210067 -0.39765495 -0.3929997
0003d0 89 db ea be dd c2 55 bf 13 f7 ac be 0d 5c d7 3e
       -0.45870617 -0.8350046 -0.33782253 0.42062417
0003e0 8b 11 ab be e1 30 3c be 2b 37 b9 bd 88 fd 45 be
       -0.33411822 -0.18378021 -0.090437256 -0.19334996
0003f0 0c 85 4b 3d 62 b7 1a bf 70 62 15 bf 55 d1 65 bf
       0.04968743 -0.6043607 -0.5835333 -0.8977254

fc2.weight f4 [256, 256]
000000 04 fa 4d be 86 e6 17 3e 84 42 aa be 70 05 97 3d
       -0.20114905 0.14834031 -0.33253872 0.07374084
000010 f6 93 cf bd c1 e4 20 bd 5b 55 9e bd 2e a1 8b 3d
       -0.10135643 -0.039280657 -0.07731124 0.06817852
000020 4b 4c c0 3c ef ba 7d be d1 22 ea 3c 1d 8b 54 be
       0.02347388 -0.24778341 0.028581055 -0.20756193
000030 85 77 8c bd 7d 08 b6 be 11 e3 60 be 7b a3 f7 bd
       -0.06858734 -0.3555335 -0.21961619 -0.12091728
000040 c7 65 59 3e 9b 47 71 bd 2b d8 72 bd bf 7f a6 bc
       0.21230231 -0.05890618 -0.059288185 -0.020324586
000050 52 e0 7d 3d d6 59 6e 3e 61 1d 3f be 05 0c 36 bd
       0.061981507 0.23276457 -0.18663551 -0.044445056
000060 37 90 01 be d3 dd 01 bd 4c 65 a8 3d 89 c9 2a be
       -0.1265267 -0.03170569 0.08222446 -0.16678442
000070 cb e4 02 be b4 0d 01 bd cd 82 54 be 1f e7 81 be
       -0.1278259 -0.03150721 -0.20753022 -0.25371644
000080 28 ab b3 bd 17 25 25 3e f2 71 b1 be 98 a6 ae be
       -0.0877288 0.1612743 -0.34657246 -0.34111476
000090 a8 47 f8 bd 1c 00 d0 be 03 16 73 3d b7 5f 0b 3e
       -0.12123042 -0.40625083 0.059347164 0.13610731
0000a0 5c fd 71 be b8 96 e7 bc 22 b7 82 3d 38 0e 03 bd
       -0.23631805 -0.02827011 0.06382586 -0.031995982
0000b0 a9 8d 69 bd 90 ee ec bc 19 00 35 be 76 9e e4 bd
       -0.057019863 -0.02892235 -0.17675819 -0.111630365
0000c0 36 85 3e 3e ea ce 2e be ce b5 a9 bd 82 23 cb 3c
       0.18605503 -0.17071119 -0.082866296 0.024797205
0000d0 96 63 91 3d 6f 5f 10 be e1 83 48 bb 5a 02 20 bd
       0.07099073 -0.14098905 -0.0030596184 -0.039064743
0000e0 76 f4 31 bc b5 1c 16 be 47 62 5c be 32 7d c8 3d
       -0.010861507 -0.14659388 -0.21521865 0.09789504
0000f0 27 50 ee bc 73 98 9a bd 11 86 b6 be ba 50 ce be
       -0.029090954 -0.07548609 -0.3564916 -0.40295964
000100 1b e3 2c be 87 3c 8d bd 91 ca 3d bd 8e 87 f8 bd
       -0.16883509 -0.0689631 -0.04633576 -0.1213523
000110 a0 e5 0e bc 39 7a e7 bd f8 0b 80 be 60 65 af bd
       -0.008721739 -0.11302609 -0.2500913 -0.085642576
000120 22 85 8b bd 86 28 76 bd ea 76 3d bd 64 a7 81 bd
       -0.068125024 -0.06009724 -0.046255983 -0.06330755
000130 79 23 16 be fd 96 5f be 74 70 44 be f6 48 78 be
       -0.14661969 -0.21834941 -0.19183522 -0.24246582
000140 3e 13 50 3d 48 fd 06 be 6b 6f f4 bd 93 62 63 be
       0.0507996 -0.13182557 -0.11935314 -0.22205572
000150 70 c0 df be 7d 15 0c bf 16 4b 0e 3e 3d 55 8d 3d
       -0.43701506 -0.5472029 0.1389583 0.069010235
000160 c9 d8 50 be 6c 8e 82 be 51 a8 8d 3d 5b f1 40 be
       -0.20395197 -0.25499284 0.069168694 -0.1884207
000170 f7 3e c0 bc e8 93 b1 3d 1d 1a c4 bd c0 82 64 be
       -0.023467524 0.08670789 -0.09575293 -0.22315502
000180 63 90 10 be be 2b 95 be ae 61 58 bd 6a d9 07 bd
       -0.14117579 -0.29134935 -0.05282753 -0.033166327
000190 7c 3c a9 bc 1b e7 e7 bb 21 e0 8d be 70 45 56 bc
       -0.020658724 -0.0070771105 -0.2771006 -0.013078079
0001a0 5e 17 03 3d 11 ef 9f bd 83 b1 df bd ae ff 07 3d
       0.032004707 -0.0780927 -0.109225295 0.03320282
0001b0 95 1f b1 be f5 5e 6b be b4 0d 9d bd 80 76 aa 3c
       -0.34594408 -0.22985442 -0.07668629 0.020808458
0001c0 ed 6d aa bb 7d 6a 43 be e2 8d 78 3b be 9d 10 3d
       -0.0052010925 -0.19083591 0.0037926366 0.035306685
0001d0 1b 87 81 3b c7 4d 6f 3d 42 aa 91 be 5f 1c 39 be
       0.0039528734 0.058423784 -0.2845021 -0.18077229
0001e0 7c 34 00 3d 9a 5f c8 be ef b0 a3 be 77 b4 1c be
       0.031300053 -0.39135438 -0.31970927 -0.15303217
0001f0 ff 91 1e be 93 98 93 3e f7 46 08 be b8 a8 4f be
       -0.1548538 0.28827342 -0.13308321 -0.20279205
000200 88 d2 63 be 24 bd 7c 3d 7f b2 47 be 79 dc e7 3d
       -0.2224828 0.061703816 -0.19501685 0.11321349
000210 0f 00 9d 3a a0 26 27 be e4 58 a2 be 27 53 0a be
       0.0011978167 -0.16323328 -0.31708443 -0.13508283
000220 82 28 5a be cb bf 54 bc 57 06 07 be 3e 97 90 be
       -0.21304515 -0.01298518 -0.13186012 -0.2824039
000230 5b f7 ca bc a0 37 b0 bd 3f 41 86 be e6 42 82 be
       -0.024776151 -0.086043596 -0.26221654 -0.25441664
000240 c4 50 4d be 45 b4 aa 3d f3 e7 d0 bd 58 be 85 be
       -0.20050341 0.08335165 -0.10200491 -0.26121783
000250 5a df 21 3e 7f d2 c9 be 9a 6f bd be 63 dd 10 be
       0.15807858 -0.39418408 -0.36999208 -0.14146952
000260 df 2b a4 be f0 5c ce bd bb 61 41 be 0b dc aa be
       -0.3206472 -0.1007632 -0.18884937 -0.33371004
000270 1d 57 13 bd ae d0 9b bd 5d dc d1 bd 13 7d 68 be
       -0.03597175 -0.07608162 -0.10247109 -0.22703962
000280 03 89 c1 be 9b 4c 17 3e 82 ef 7d be 7a ae 47 be
       -0.37799844 0.14775316 -0.24798396 -0.19500151
000290 ec 46 14 3e ee 5c 8c 3d 4d f3 03 be 14 b7 99 be
       0.1448018 0.068536624 -0.1288578 -0.3002249
0002a0 04 ea 63 be 29 0c 17 bd 6f 6a f4 be dc dc 63 be
       -0.22257239 -0.03687683 -0.47737452 -0.2225222
0002b0 ea 30 96 be 1c c5 07 3e ac ad 19 be 84 b7 95 3e
       -0.29334193 0.13258785 -0.15007657 0.29241574
0002c0 97 67 3e bd 0a 81 00 3e 13 e2 31 bc 95 00 98 bd
       -0.04648551 0.12549224 -0.010857123 -0.07421986
0002d0 64 9a 55 bc 4b 19 7d 3b 59 7a 90 3d 20 5a 07 be
       -0.013037298 0.0038619812 0.07054586 -0.13217974
0002e0 2f 68 40 3d e2 b3 81 bd 1e d2 1f bf 2d 27 7a be
       0.046974357 -0.06333138 -0.6242999 -0.24429007
0002f0 22 44 ab 3d 15 20 0d be a4 37 52 3d 92 19 c6 3c
       0.08362605 -0.1378177 0.051322594 0.024182115
000300 dc 36 83 be ef 48 95 3d b2 cf 4a 3d 21 03 fd be
       -0.25627792 0.072893016 0.04951448 -0.4941645
000310 4b a2 b5 bd 22 5a 95 3c a9 cf 40 3e 76 7a a1 bd
       -0.088688456 0.018231455 0.18829216 -0.07884686
000320 94 96 88 bd 03 0d 3b 3d 9d 83 ca bd e1 f0 03 be
       -0.066693455 0.045666706 -0.098883845 -0.12884857
000330 f5 85 29 3e 53 86 a0 bd 5a 04 ce be bc eb c2 3d
       0.16555007 -0.0783812 -0.40237695 0.09517619
000340 32 0c ba be b2 3a 19 3d f1 67 82 3a 2a b1 ae bd
       -0.3633743 0.03740949 0.000994919 -0.08529885
000350 62 ec 11 be d8 fc 02 3e 9c e9 18 be 58 59 09 be
       -0.14250329 0.12791765 -0.14932865 -0.13412988
000360 5b 78 8a be e1 c8 8e 3c 38 1e 86 bd bc 5d b9 bc
       -0.2704495 0.01742977 -0.065487325 -0.022627704
000370 9f 14 42 3d 1e 20 aa be 04 6f 93 3d 82 fd c8 be
       0.047382947 -0.33227628 0.07198909 -0.3925591
000380 2a 32 93 3d bd d5 84 be 08 00 2c 3e 99 99 c4 bc
       0.071873024 -0.2594432 0.16796887 -0.023999022
000390 fa f3 d9 be eb b4 16 3e 57 20 3a 3e d4 92 c9 bd
       -0.42568952 0.14717452 0.18176399 -0.09842458
0003a0 41 5c 46 3c aa f4 3b be ca 69 0b be e2 d8 da 3d
       0.012106956 -0.1835505 -0.13614574 0.10685898
0003b0 d5 ef 8c 3d 6b 2d 13 3e bd 01 1b 3e da cf 6e bd
       0.06881682 0.14372794 0.15137382 -0.05830369
0003c0 b8 4e 12 be d0 44 88 3c 5f 98 1d be be 81 2f be
       -0.14287841 0.016634375 -0.15390156 -0.17139336
0003d0 bf 9d a5 3d f1 f9 04 be a6 ab ee 3c df bb 04 3d
       0.08086728 -0.1298597 0.029134583 0.03240573
0003e0 56 77 17 be d4 82 73 bd 08 c0 29 bd 33 d3 3d be
       -0.14791617 -0.05945094 -0.0414429 -0.18537597
0003f0 a6 33 35 be 6e 65 40 3d 0f 88 6e be 1c 54 88 be
       -0.17695484 0.04697173 -0.2329409 -0.2662667

fc2.bias f4 [256]
000000 dc 63 f9 bd 02 f7 98 be 02 c0 95 bd b5 bd d2 bd
       -0.1217725 -0.29875952 -0.07312013 -0.1029009
000010 f2 91 7e be 33 93 b2 bd ff cc 0d bd 6a 8b e3 3b
       -0.24860361 -0.08719482 -0.034619328 0.0069441097
000020 8e 86 0e bd cc 13 62 be eb b3 75 be 81 22 52 be
       -0.03479629 -0.22077864 -0.23994415 -0.20520975
000030 1c 8e 50 be a6 91 b8 3d 72 95 fb bd 94 c7 54 be
       -0.2036671 0.09012155 -0.12284364 -0.20779258
000040 95 a4 97 bd 63 b8 c9 be 9e cf a7 be a5 89 42 be
       -0.074044384 -0.39398488 -0.32775587 -0.1899782
000050 14 e6 ce be 4c 32 5c bd d7 6b 33 bd c0 b4 7f 3b
       -0.4040991 -0.053758904 -0.043804016 0.0039017648
000060 23 da ab be 18 71 55 be 88 1e 90 bd 51 6d ac 3e
       -0.33564863 -0.20843923 -0.070370734 0.33677152
000070 5c 73 65 bd 8c c2 0d be 27 6b e7 bd 3c ab 0d bd
       -0.05601822 -0.13843745 -0.112997346 -0.03458713
000080 66 5a 65 be 99 ef cb bd bd 63 55 be d2 11 19 bf
       -0.22397766 -0.09957809 -0.20838828 -0.59792817
000090 54 5c 17 be b2 94 4a be 64 d6 dd bc fc 98 0c be
       -0.14781314 -0.19783285 -0.027079768 -0.13730234
0000a0 52 9f e5 bd 76 b7 28 bd 30 5f f4 bd d2 9a e4 bd
       -0.112120286 -0.041190587 -0.11932218 -0.11162342
0000b0 1c 85 73 bd d1 78 84 be 0b a4 6b bd ad 74 84 be
       -0.059453115 -0.25873426 -0.05752949 -0.25870267
0000c0 9a fa 52 3c 84 f7 7b bd 57 75 08 be e1 53 71 3a
       0.012877131 -0.061515346 -0.13326012 0.00092059193
0000d0 c3 b8 70 be 41 b8 f7 bc 44 a4 10 bd b5 97 cf be
       -0.23507981 -0.030239226 -0.035312906 -0.4054543
0000e0 a3 14 28 be 02 00 f1 be bf 8f 81 be e1 0f 9f bd
       -0.16414122 -0.47070318 -0.25304982 -0.077667005
0000f0 0b 90 5e bd 54 58 52 be 62 9f 60 be b4 00 6b bd
       -0.05433659 -0.20541507 -0.219358 -0.057373717
000100 b9 fb 3a bd 30 96 53 be 81 ef df bd 6e b7 b8 bd
       -0.045650218 -0.2066276 -0.109343536 -0.090193614
000110 d0 3c b1 bd 28 2f 67 be c8 53 b5 be e8 8c 02 be
       -0.08654177 -0.22576582 -0.35415483 -0.12749064
000120 4f 79 98 be b5 3c 61 3f fb 82 ce be 5a d9 36 bd
       -0.2978005 0.87983257 -0.40334305 -0.044640876
000130 0b ce 52 bd 07 c8 04 bf 33 7b ac 3d b3 9a 9b 3e
       -0.05146603 -0.5186772 0.08421936 0.30391464
000140 19 a1 c1 bd 36 b6 80 bd 8e ab 3d bd 36 5f 49 bd
       -0.09454555 -0.06284754 -0.046306185 -0.049163066
000150 52 40 0c be 56 47 0d 3f f0 e1 7e be de 22 94 be
       -0.13696411 0.55186975 -0.24890876 -0.28932852
000160 d3 4c ef bc e9 d7 e8 bb b9 e7 c5 bd 08 e4 1d be
       -0.029211437 -0.0071058166 -0.09663338 -0.15419018
000170 50 ae 9a be b4 ec 10 bf 79 b8 24 be bc 5e 97 bd
       -0.30211115 -0.5661118 -0.16085996 -0.07391116
000180 4d 20 cc bd 87 6a 7f bd 01 8a fe bd 89 ac 9a be
       -0.099670984 -0.06235745 -0.12428666 -0.3020976
000190 d5 aa 7f bb 31 11 9f bc 64 12 8f be c2 35 bb bd
       -0.0039011736 -0.019417377 -0.27943718 -0.09141113
0001a0 af 70 87 be 67 6c 83 3e 1d ba a5 3d 0f 6d 18 bc
       -0.26453158 0.25668642 0.08092139 -0.009303345
0001b0 a8 4e 29 bd 60 aa 93 be 5a e5 94 bd d6 f1 80 be
       -0.041334778 -0.28840923 -0.07270308 -0.25184506
0001c0 59 c2 c3 bd 80 9a 43 bd 65 9f 17 bd 8e 08 9c bd
       -0.09558553 -0.047754765 -0.037017245 -0.07618819
0001d0 16 d9 0a be 92 a3 6c 3c 9f 76 45 be cf 31 9c bd
       -0.13559374 0.014443295 -0.19283532 -0.07626688
0001e0 b5 23 bf bd 48 92 38 be 66 d4 95 be c5 10 06 be
       -0.093329825 -0.18024552 -0.2926361 -0.13092335
0001f0 ba 5f f1 be 55 40 89 bc 76 2b 51 bd e9 2b ad bd
       -0.47143346 -0.016754309 -0.05106684 -0.08455641
000200 7d d5 1e bf 65 74 76 bd d3 91 8e bd 96 8a 95 be
       -0.6204451 -0.060169596 -0.069614075 -0.29207295
000210 8a 7f 32 be 93 4f d2 bd cf cf f3 be 5a 62 09 bd
       -0.17431465 -0.10269084 -0.47619483 -0.03354106
000220 99 9c c5 3e bf 01 6c bd 19 0d 12 3d 34 3b 8c 3d
       0.38596037 -0.057618853 0.035657022 0.068472296
000230 7e bb 34 be ea 9f 23 be 8b dd 6d be 77 12 32 bd
       -0.17649648 -0.15978971 -0.23229043 -0.04347464
000240 b5 6b df bd 14 37 54 3e 22 ea 58 be a4 9f d3 bd
       -0.10909215 0.20724136 -0.21183065 -0.103331834
000250 38 d4 99 bd 8a bc 8a bb 08 34 20 be 96 21 dd bd
       -0.07511181 -0.0042339014 -0.15644848 -0.10797422
000260 a5 95 cb bd 72 6a 0a be 2e 6f b0 bd fa 7c ef bc
       -0.09940652 -0.13517168 -0.08614956 -0.029234398
000270 4e d0 a6 bd 09 7e 26 be 6e 9d dd bd cc 86 89 bd
       -0.081452 -0.16259016 -0.10821043 -0.067151636
000280 75 3b 0a bf fb c7 8c bd 43 4d 2a be 49 8e de bd
       -0.53996974 -0.06874081 -0.16631036 -0.108669825
000290 db 3f 25 bd 60 63 65 be 6d 72 24 bd a6 9d a4 be
       -0.0403441 -0.2240119 -0.040148187 -0.32151526
0002a0 27 21 cd bd 25 b0 0b be 24 30 00 be 28 a5 68 be
       -0.10016089 -0.13641413 -0.12518364 -0.22719252
0002b0 ee 98 06 3f 69 3e 0c be 97 20 88 bc 2a 4e 01 be
       0.525771 -0.13695683 -0.016617103 -0.12627473
0002c0 db da 40 be 78 42 f6 be 25 f8 a8 bd c4 df 03 be
       -0.18833487 -0.48097587 -0.08250455 -0.12878329
0002d0 7a 9b d8 bd 2d 35 b1 be 4f 7b 5e bd f7 7d f5 be
       -0.1057653 -0.34610882 -0.054316815 -0.47947666
0002e0 00 62 72 be 23 84 24 3e 87 f3 b0 bd 5a 22 ec bd
       -0.23670197 0.16066031 -0.08640199 -0.115299895
0002f0 55 d5 c2 3c e6 6c 07 bd c5 89 15 bf 61 15 81 bd
       0.023783365 -0.033062838 -0.58413345 -0.06302906
000300 c6 23 a0 be de 09 c7 bd ed d8 df bd 71 cc 86 be
       -0.31277293 -0.09718679 -0.10930047 -0.2632785
000310 24 33 f5 bc d2 1d 93 bd 45 2b b5 be 78 4e 82 be
       -0.029931612 -0.07183422 -0.35384575 -0.25450492
000320 04 d8 c9 bd ed f7 80 bd 4d a7 28 be 42 95 37 be
       -0.09855655 -0.06297288 -0.1647007 -0.17928031
000330 09 f4 8d bd 2e 7b 17 bf c5 3d ce be cb 5a 01 be
       -0.06931312 -0.5917233 -0.402815 -0.12632291
000340 4e 76 6c be 7c d1 21 bf ce fd d6 be a2 dc ab bd
       -0.23092005 -0.6321027 -0.41990513 -0.08391692
000350 f1 bb c2 bd 94 d3 48 be 59 db 96 39 c4 36 23 bf
       -0.09508503 -0.1961196 0.00028773656 -0.6375544
000360 16 8b a1 bd 37 f2 19 bf 5f 2a 8b bc f0 e0 b8 bd
       -0.07887857 -0.60135216 -0.016987978 -0.090272784
000370 c5 6d 44 be 29 01 69 be 2e f7 e3 bd 88 4d d0 bd
       -0.19182499 -0.22754349 -0.1113113 -0.10171038
000380 cb ac 54 bd bb 88 1b be e7 fa e5 3c 59 05 88 bd
       -0.0519226 -0.15188877 0.028073741 -0.06641645
000390 9c 37 82 bd 13 cb 48 be a7 4b b9 be d9 83 f9 bd
       -0.06358263 -0.19608717 -0.3619053 -0.12183351
0003a0 90 f4 92 be 5f 3d be be cf d3 34 3d cb f1 95 be
       -0.2870221 -0.37156197 0.04414731 -0.29286036
0003b0 3b c1 b0 bd a8 2f 96 3d 0b 71 27 be 48 e8 e5 bd
       -0.08630606 0.073333085 -0.16351716 -0.11225945
0003c0 d6 34 01 be a8 37 39 3e a2 2e ba bd 11 2f 62 be
       -0.12617812 0.18087637 -0.09090926 -0.22088267
0003d0 e9 70 e7 be 67 9f 03 be a1 21 d5 bd 05 38 f1 bd
       -0.4520333 -0.12853776 -0.10406805 -0.11778263
0003e0 3a 80 4e be 18 9b db bc 2b e6 f5 bd a6 d3 f1 bd
       -0.20166102 -0.026807353 -0.12006792 -0.11807947
0003f0 32 72 fa bd 69 ef 02 be 19 3c ad bd dc 6d 68 be
       -0.12228812 -0.1278664 -0.08458728 -0.22698158

fc3.weight f4 [128, 256]
000000 86 30 71 be df d4 21 be d0 a1 b6 3c 68 95 2f bf
       -0.23553666 -0.1580386 0.022293955 -0.6858735
000010 91 21 0c 3d 1d 9d 8d bc 63 a5 af bd e0 80 a4 bb
       0.0342117 -0.017286832 -0.08576467 -0.005020246
000020 3b 10 ee 3c d9 28 2a bf 96 11 14 be 02 74 c5 bb
       0.029060474 -0.6646858 -0.14459834 -0.006025792
000030 53 c4 9e be 95 48 e9 bd 48 fa 0c 3e cb 85 8a bb
       -0.31009158 -0.11390797 0.1376735 -0.004227375
000040 d0 33 9a 3c e0 e2 94 be 3a 5a f4 be 9a 5e ad 3d
       0.018823534 -0.29079342 -0.47725087 0.084653094
000050 72 77 b8 be 47 6e e5 bc 92 b7 f0 3c 81 69 d3 be
       -0.3602863 -0.028006686 0.029384408 -0.4129143
000060 1f fb 9d 3d c3 b6 a6 be fd 41 09 be 05 08 7d be
       0.07713913 -0.3256131 -0.13404079 -0.2471009
000070 8d ed af 3e 8a 34 2a 3d 40 d9 db 3b 90 ad f6 bc
       0.34360924 0.04155401 0.006709248 -0.030112058
000080 9c 46 0f be 5c 43 19 bc fc 86 70 be 2c 60 99 be
       -0.13991779 -0.009354439 -0.23488992 -0.29956186
000090 af c8 d1 3e d4 8e 12 3d 73 ca b0 bd ae c5 38 3c
       0.40973422 0.035780743 -0.08632364 0.011277599
0000a0 29 05 ed 3d 3a 4b 9e 3b 4b b9 49 bd 42 c5 58 3d
       0.1157325 0.004830745 -0.049248975 0.052922495
0000b0 04 b6 7d 3d f9 b9 13 bd 46 7e b8 bd d0 29 2e 3d
       0.06194116 -0.03606603 -0.0900846 0.042520344
0000c0 cf ee 1d 3d a9 d7 be 3c 7f 9d 3b be 1f 4a 63 bd
       0.038557824 0.023296194 -0.18321799 -0.05549061
0000d0 69 77 73 3e fd c9 81 be 90 d9 14 3d fa c3 14 3e
       0.2377602 -0.25349417 0.036340296 0.14527884
0000e0 c6 c1 44 be 97 e8 2b bf dc 96 32 be 37 21 0b bc
       -0.19214544 -0.6715178 -0.17440361 -0.008491806
0000f0 26 39 90 be 17 ab 59 3e 5b ec 71 3e 62 cc e2 bd
       -0.281686 0.21256672 0.23625319 -0.11074139
000100 98 81 48 bd 0a b1 1c 3e 18 96 0c 3d 40 08 d9 3c
       -0.048951715 0.1530191 0.034322828 0.026493192
000110 b4 4f 0a bf fa f1 e1 bd 73 a2 78 3d d9 fd 93 3d
       -0.5402787 -0.110324815 0.0607018 0.07226152
000120 f6 a6 26 3d 71 e9 a9 be 88 a0 ad 3d 4a da c3 3d
       0.04068657 -0.33185914 0.084778845 0.0956312
000130 48 4c 8c bc 07 f1 7f bb 50 8a d6 bc 19 6b 4d bb
       -0.017126217 -0.0039053576 -0.026189 -0.0031344353
000140 52 1f be bc f6 e7 54 bd d5 cc 45 bd 76 5b d2 3c
       -0.023208294 -0.051979028 -0.048291046 0.025678378
000150 cb 50 0c bd 8f 02 00 3a d5 a5 1e 3e 00 93 3a 3e
       -0.034256738 0.0004883194 0.15492947 0.18220139
000160 0b 44 96 bd 94 a0 6b bd e0 e4 72 bc c5 90 b0 3d
       -0.07337197 -0.057526186 -0.014825076 0.086213626
000170 f4 4d 0a 3e 44 b4 90 be a5 14 20 bd c3 6e 2a 3c
       0.135063 -0.28262532 -0.03908219 0.010402384
000180 61 04 ef bc 74 cc d3 3d f2 34 c0 3c 43 18 86 be
       -0.029176893 0.10341731 0.023462746 -0.26190385
000190 a2 a1 50 3d 70 c8 d2 bb f1 fc 13 be 99 38 d5 bc
       0.050935395 -0.0064325854 -0.14451958 -0.026027964
0001a0 2f e1 1c bc c2 97 19 3e da bc 0c bf d4 8d 2d 3c
       -0.009575172 0.14999297 -0.54975665 0.0105928965
0001b0 f8 76 7d 3d 23 81 5c be 70 c1 ac be 63 90 04 be
       0.061881036 -0.21533637 -0.3374133 -0.12945704
0001c0 28 c0 55 bd 9f da d8 bd 2a 84 75 3d c7 05 51 bd
       -0.052185208 -0.10588574 0.059940495 -0.0510309
0001d0 73 cd a9 bd af da 38 bc eb f6 82 3e 70 00 5f 3c
       -0.082911395 -0.011282607 0.25579008 0.013610944
0001e0 fe b9 bf bd 38 2f d7 3b 74 89 c7 bd da ac de bc
       -0.09361647 0.006566908 -0.09743014 -0.027182031
0001f0 83 cc 3f be f7 cb 45 3c 09 17 23 bd 5d d1 09 bd
       -0.18730359 0.012072555 -0.03981689 -0.03364693
000200 cf 85 bd be 51 72 65 bc 8e 2d 06 bd 29 6f 5a b9
       -0.3701615 -0.014004306 -0.032758288 -0.0002083151
000210 47 c0 dc 3e ad 1b bf bd 2d 53 7b be 6f bb 04 be
       0.43115446 -0.093314506 -0.24543448 -0.12962125
000220 4d e9 17 bf fa 17 fa bc 83 f6 e0 3d 1a 25 c7 be
       -0.59340364 -0.030529011 0.109845184 -0.38895494
000230 c0 f8 15 be fb 5a 2e 3e 05 2f 10 bf 28 4a 0c bd
       -0.14645672 0.17026894 -0.56321746 -0.03425041
000240 42 2e 0d 3d 78 ff 28 3e 95 ab ab bd 3b 42 67 bd
       0.034467943 0.16503704 -0.08382336 -0.056459647
000250 52 da 52 3d 14 07 ed 3c 27 b7 f9 bc f4 f2 04 3c
       0.051477738 0.02893404 -0.030482842 0.008114565
000260 d4 dc 04 bd 80 0a 8e be 60 3d f2 bc d4 83 da 3c
       -0.03243716 -0.27742386 -0.029570282 0.026674189
000270 00 63 d1 3c cc db 11 be c7 ab 7f 3d c2 3d 0f bd
       0.025559902 -0.14244002 0.06241968 -0.034971006
000280 0a 32 b0 be 28 f9 20 3d 63 9a 46 be 7d f9 09 be
       -0.34413177 0.039300114 -0.19394831 -0.13474078
000290 10 c0 a8 bc 48 dc bc be 08 d1 89 bd 8c e3 df 3d
       -0.020599395 -0.3688681 -0.06729323 0.10932073
0002a0 fc c1 56 3d 8d b1 0d bd 44 74 d0 bc a7 7d 86 be
       0.05243109 -0.034593154 -0.025446065 -0.2626774
0002b0 55 74 65 be e2 8e 98 be f1 cd 6a 3c b4 ba 28 be
       -0.22407658 -0.2979651 0.014331327 -0.16477472
0002c0 41 1f cd bd b0 b7 4a bf e9 fc e5 bd b4 e5 42 3d
       -0.10015727 -0.79186535 -0.112298794 0.047582343
0002d0 5f 42 8e bd 9c 03 c8 bd e2 c2 0c bd 7e 00 58 be
       -0.06946253 -0.097663134 -0.034365542 -0.21093938
0002e0 b8 2a 9a bd 27 00 9b be e2 b0 0c 3d df c4 02 3d
       -0.07527679 -0.30273554 0.034348376 0.031926032
0002f0 5c 5e 86 be e0 dd fb 3c 9e 18 fc be 51 80 a9 bc
       -0.26243865 0.030745447 -0.4923753 -0.020691069
000300 6e d9 f0 be 09 b6 88 bd 64 b5 12 bb 21 74 cb bc
       -0.47040886 -0.066753455 -0.002238595 -0.024835648
000310 37 1f 90 bc 88 d6 a0 be fa a0 7f be e1 fd 66 be
       -0.01759301 -0.31413674 -0.24963751 -0.22557785
000320 42 ac 78 bd 1c bb 80 bc 2a 97 88 3d e8 3c 05 bf
       -0.060711153 -0.01571422 0.06669457 -0.5204606
000330 42 14 28 3e 2e 83 a3 be e0 1b c9 be 88 94 9e bc
       0.16413978 -0.3193602 -0.3927908 -0.019357935
000340 41 57 40 be 8a 04 b5 be 0a 22 c0 be 12 8f 76 3d
       -0.18783285 -0.35355026 -0.3752597 0.060195036
000350 b2 2e 8a 3b 3c a1 1c 3e 1f ae c6 3d 3d 99 1f bf
       0.0042169923 0.15295881 0.0970118 -0.623432
000360 3e b1 7d bc e4 a6 22 be 96 85 93 bd 28 d3 a7 3c
       -0.015484152 -0.15883976 -0.07203214 0.02048643
000370 46 3a c2 3b 74 07 76 3e cf 7c 23 be 20 b4 6a bd
       0.005927357 0.2402628 -0.1596558 -0.057300687
000380 5e 2c 88 3d ca de 69 bd 63 c2 8f bc 82 8f 65 bd
       0.06649087 -0.057097234 -0.017548745 -0.056045063
000390 07 66 37 bd 72 76 29 be 3c e2 c0 be b6 90 0d be
       -0.044775035 -0.1654909 -0.37672603 -0.13824734
0003a0 a4 5f db bd 05 a7 c1 bd 24 d1 77 3e 8b 20 ce bd
       -0.107116014 -0.094556846 0.24200875 -0.10064801
0003b0 48 dd 05 bc 03 ed da be 14 b3 50 3e d0 e3 ab 3d
       -0.008170433 -0.4275895 0.20380813 0.08393061
0003c0 ab 8f be bd 36 e5 20 be 1b c7 4c be fe a5 ac be
       -0.09304746 -0.15712437 -0.19997828 -0.33720392
0003d0 33 22 a1 3e f2 a1 b8 3c d0 23 84 be 30 a3 9e 3c
       0.31471404 0.022538159 -0.25808573 0.019364923
0003e0 a4 d4 72 bc 0f 40 34 3e 75 ff b9 bd 8b 0e a6 be
       -0.014821205 0.17602561 -0.09081928 -0.3243297
0003f0 24 cf 80 bd e6 03 17 be 2e b9 45 3d 9b 35 db be
       -0.06289509 -0.14747581 0.048272304 -0.42814335

fc3.bias f4 [128]
000000 95 a9 1a bf 05 ec 12 bf ad 2f a1 be 90 09 3e bf
       -0.6041501 -0.5739139 -0.31481686 -0.7423334
000010 58 5b 4c 3f f0 fd 0a bf ab d1 3c 3e 11 f5 42 be
       0.7982688 -0.5429373 0.18439357 -0.19038798
000020 8e c3 01 bf 0b 89 68 bf 38 40 fe be f6 bb 69 3e
       -0.5068902 -0.9083411 -0.4965837 0.22825608
000030 3d 68 5e be 13 32 29 3f 02 4a df 3d 3a 6f fc 3d
       -0.21719451 0.6609203 0.10902788 0.12325902
000040 5a c6 27 bf e0 07 0a bf db 7f c6 be 99 19 97 3e
       -0.65537035 -0.53918266 -0.3876942 0.29511717
000050 3a fd 06 bf 84 a9 31 be 80 e9 24 bf b6 93 cd be
       -0.52730143 -0.17349821 -0.6441879 -0.40151757
000060 5d 4f c2 bc 3e b2 2a 3f 4c f6 a8 bd ad 1e 3e bf
       -0.023719484 0.66678226 -0.082501024 -0.7426556
000070 3d 2c 4d be e8 52 f8 be 91 ea fb be d9 75 f2 be
       -0.20036407 -0.48500752 -0.49202397 -0.47355536
000080 b8 7e 14 be dc 4e 4c 3e a9 17 63 bf f6 ef dd bd
       -0.14501464 0.19951957 -0.8870798 -0.108367845
000090 80 f6 d1 be 3d cd ff be 80 0a b8 be 55 88 2c bf
       -0.41008377 -0.49961272 -0.3594551 -0.67395526
0000a0 84 7b d6 3e 54 f2 e5 be 44 dc 15 be e1 f5 29 bf
       0.4189111 -0.44911444 -0.14634806 -0.66390806
0000b0 c0 00 8b 3e 75 fa 34 3f d9 68 41 3e ae cc bc 3e
       0.2714901 0.7069467 0.18887652 0.36874908
0000c0 35 0e 53 be 44 d9 19 be 5f 01 2b be 50 9c 7f 3d
       -0.20610888 -0.15024287 -0.16699742 0.06240493
0000d0 c0 11 48 bc f8 91 69 bf f3 1e 28 bd 2f f9 ff bd
       -0.012211263 -0.91238356 -0.04104514 -0.124987
0000e0 e4 34 c4 3d d1 c3 94 be 33 97 36 bd 70 7c 20 3f
       0.095804006 -0.29055646 -0.04457779 0.62689877
0000f0 72 b2 f6 be 77 28 9f be f7 8e 99 3f 2c 99 97 3f
       -0.48183018 -0.3108556 1.1996754 1.1843619
000100 e7 c9 84 3f 1e fb 51 be 41 c4 65 be e4 d8 7e be
       1.0374116 -0.2050595 -0.22438146 -0.24887425
000110 13 c7 06 bf bf 1b 94 3f e9 b2 41 3f c2 53 6f bd
       -0.52647513 1.1570967 0.7566362 -0.058429487
000120 5b 85 28 be 3e 32 9e be 40 5f 72 be 50 29 3c be
       -0.16457121 -0.30897707 -0.23669147 -0.18375134
000130 4a 72 6a be 1a 82 dd bd bf 99 1c bf 92 54 9b bd
       -0.2289516 -0.108158305 -0.611721 -0.0758449
000140 f6 23 3f be fd 09 4b 3f 47 5c d1 be b2 5e a1 be
       -0.18666062 0.79312116 -0.40890715 -0.3151756
000150 8b e8 97 3e a7 25 2d be bf 67 30 3f 5a ca bb 3f
       0.29669604 -0.16908894 0.68908304 1.4671128
000160 4d 0f 04 bf da f7 46 bf e5 55 c7 be 2c e5 12 3f
       -0.5158585 -0.7772194 -0.3893272 0.5738094
000170 21 3e 1c be 7b 43 9b bc a0 5a 7d be 50 b9 55 be
       -0.15258075 -0.018953076 -0.24741602 -0.20871472
000180 27 e8 de be 2a c9 5d bf c9 d6 a5 3e 6d dc 43 be
       -0.43536493 -0.86635077 0.3239043 -0.19127055
000190 53 c1 4a 3f 96 98 2c be a9 f8 c2 be 1f 96 df 3e
       0.7920124 -0.16855082 -0.38080338 0.4366922
0001a0 ff 64 88 3d 94 f7 97 be 74 79 5e 3d 02 be 0f be
       0.066598885 -0.29681075 0.054315045 -0.14037326
0001b0 a5 21 d5 bd a7 9d 06 3f 79 c2 06 3f 82 e7 e9 3e
       -0.10406808 0.5258431 0.5264049 0.4568444
0001c0 a9 c1 a2 3e 2c 91 9b bd 07 6c e5 be c7 c0 58 bf
       0.31788376 -0.07596049 -0.4480898 -0.84669155
0001d0 76 dc 81 bc 44 2c 04 bf 3d 5a a1 3f 75 f6 3f bf
       -0.015852194 -0.51630044 1.2605664 -0.7498544
0001e0 c8 47 c2 be 24 83 3e bf ea 27 b1 be cf 27 be be
       -0.3794539 -0.74418855 -0.34600765 -0.37139747
0001f0 51 79 43 3e 01 61 81 be 3f 50 0b be ae 3e 43 bf
       0.19089247 -0.2526932 -0.1360483 -0.76267517

fc4.weight f4 [5, 128]
000000 0e ec 8d be 60 31 94 bd 46 0e db 3d 5e bc 8e bd
       -0.27719158 -0.0723598 0.10696082 -0.06969522
000010 57 d0 05 3d 20 e7 13 bd 07 68 cb 3d a3 a0 60 bd
       0.03266939 -0.03610909 0.09931951 -0.054840695
000020 b2 ac 3e 3c 96 db 45 3d 44 2d 9d 3e 42 de ab 3c
       0.011637853 0.048305117 0.30698597 0.020980004
000030 71 61 22 3d e7 5f c8 3d cd f4 14 3d 25 55 25 3c
       0.03964371 0.09783917 0.036366273 0.010091101
000040 ba e3 ef bb 1d 4c ac 3d f4 69 0f be 2c 64 68 bd
       -0.0073208483 0.08412955 -0.14005262 -0.056736156
000050 dc 53 2f 3e 19 eb 97 3c f4 32 7d bd d7 e8 a4 bd
       0.17121834 0.01854472 -0.06181617 -0.08052223
000060 03 c7 65 bd d9 b4 80 bd cd 98 4a 3d b5 c6 7c 3d
       -0.056097995 -0.06284494 0.04946213 0.06171294
000070 e6 d7 51 3d 59 71 1a be 8a 6d 04 be 93 ba 40 3b
       0.051231287 -0.15082301 -0.12932411 0.0029408082
000080 45 c7 63 3d 80 b6 c1 3c 87 ce ae bc 54 d5 8b bd
       0.05560996 0.023646593 -0.021338714 -0.068277985
000090 a7 8b a8 3e f9 49 28 bd e9 4e 13 bd 67 19 ac 3d
       0.32919046 -0.04108617 -0.035963926 0.084032826
0000a0 52 a6 e1 bd df 87 32 3e 32 6c eb 3c bb 6e 39 bc
       -0.11018051 0.17434643 0.028738115 -0.011317904
0000b0 a6 8e 8c 3d 84 a1 06 3c f3 6f b3 3d 11 94 4e bd
       0.068631455 0.008217219 0.08761587 -0.050434176
0000c0 39 f3 34 bd 32 d4 0e 3d 16 ed c6 3c d7 9a cd 3c
       -0.044177268 0.034870334 0.024282973 0.025098247
0000d0 00 f8 07 3d 2c be 92 bd 42 aa 3c 3d 2f d7 b0 ba
       0.033195496 -0.07165179 0.046060808 -0.0013491864
0000e0 cf 6d 5e bd 01 57 32 bd 74 3f 6e bd 66 6b 02 be
       -0.05430394 -0.043540005 -0.058165982 -0.12736282
0000f0 64 c2 cc 3d 6c 6a 4e 3e d9 4d 29 be 80 5b 88 3d
       0.099980146 0.20157784 -0.16533603 0.06658077
000100 80 bb 69 3b ff b1 c5 bc f3 11 58 bd 8b c8 ce bd
       0.0035664737 -0.024132727 -0.052751493 -0.10096844
000110 fd 08 b6 3d 05 38 61 bd d8 15 7f bd 90 40 43 3d
       0.08888433 -0.054985065 -0.06227669 0.047668993
000120 d3 a7 96 3d 57 f5 28 be 3d b5 67 bd 0d 49 69 3c
       0.07356229 -0.1649984 -0.056569327 0.014238608
000130 85 3d 7a 3d aa cc 9f 3d 14 f4 a8 3b 9a 2a dc bc
       0.061093826 0.078027084 0.0051560495 -0.026875783
000140 d9 6e da 3c c7 3e a2 3d 64 e5 65 bc 47 df 32 be
       0.026664184 0.0792213 -0.014031742 -0.17467986
000150 20 e2 21 be 73 4f 2a bc da a1 4f be 5e 2a e7 3b
       -0.15808916 -0.010394919 -0.20276585 0.007054611
000160 c5 d1 b2 bc 40 4f 9e 3d e2 a1 58 be 7a eb 33 bd
       -0.021828542 0.077299595 -0.21155503 -0.04392574
000170 8c ee f9 3c b9 bf 73 3c 94 47 50 bd 12 6b 44 bc
       0.030509256 0.014877253 -0.050849512 -0.011988418
000180 5d f7 0c 3e c3 86 08 3e e2 50 ac bd 1f 3a ac 3d
       0.13766237 0.13332658 -0.08413865 0.08409523
000190 75 47 aa bd fb b4 fc 3c b1 6b 5d bb 70 f2 ec bd
       -0.083144106 0.030848017 -0.0033786113 -0.11569679
0001a0 56 70 79 3d 88 e7 be 3d 87 9d 34 3e 68 4c be 3c
       0.060898148 0.09321505 0.17638217 0.023229793
0001b0 f3 84 16 3e 7a 7c bf 3c 72 a5 17 bd a2 ce 9f bd
       0.14699154 0.023374785 -0.037023015 -0.07803084
0001c0 78 70 8e 3d 58 61 47 3d c4 7e 2c 3e 4b 61 f5 3c
       0.069550455 0.04867682 0.16845232 0.02995362
0001d0 68 a8 48 bd 19 61 70 3c f6 0e 66 be 61 a6 f0 bd
       -0.04898873 0.014671587 -0.22466645 -0.11750484
0001e0 83 5a 58 bd 7f 7f 08 bc 5a d3 a8 3d db f6 89 be
       -0.052820694 -0.008331179 0.08243437 -0.26946148
0001f0 72 5f d7 bd 64 1b 2f 3b d4 8a 52 bd 87 7c 1a bd
       -0.105162516 0.0026719207 -0.051401928 -0.037716415
000200 b8 ea 43 bd 0c 33 a1 3a df a3 fe bd 3b 15 3f bc
       -0.047831267 0.0012298538 -0.124336 -0.011662777
000210 0c 16 f4 bc 97 09 37 bd de 39 8d 3d a0 1c 35 bd
       -0.029795669 -0.04468688 0.06895803 -0.044216752
000220 ef 20 90 3d 94 10 48 3d da cd 8e bd 09 c6 ac bd
       0.070375316 0.048843935 -0.06972857 -0.0843621
000230 21 1c ac 3d ad d1 b4 3d 1f c3 0a bd c5 17 a7 bd
       0.08403803 0.08829055 -0.03387749 -0.081588306
000240 2f 53 c7 3d 33 2e 8b 3b af bd 86 3d cc 3a 05 3d
       0.09732663 0.0042474507 0.06579148 0.032526776
000250 fe b4 ad bc e6 41 09 3c 1a 12 c5 bd 2f 91 8a bd
       -0.021204468 0.008377528 -0.09622593 -0.06765973
000260 c4 63 6a bd ae 45 25 3c 67 4c de bd b8 05 0a be
       -0.05722405 0.010087414 -0.10854416 -0.13478744
000270 a8 14 fe 3d 0c cd b3 3d 8a 6d 96 bd eb 45 1e 3d
       0.124062836 0.08779344 -0.07345112 0.038640898
000280 c2 cc 0f bc af 1f 35 3d 17 f3 60 3c c0 ce 03 3d
       -0.008776845 0.04421967 0.013729832 0.032179594
000290 9d df 42 3c 15 30 75 bb ca 1b a5 bb e1 ab 0c 3e
       0.011894134 -0.0037412692 -0.005038713 0.13737442
0002a0 2a 43 bf bc f5 89 32 bd 0f 41 fb 3c c5 0d 1a bd
       -0.023347456 -0.043588597 0.03067067 -0.037610788
0002b0 a3 f9 6d bd d7 a1 c1 bd 18 38 30 bd 59 5e 3a bc
       -0.0580994 -0.094546966 -0.043022245 -0.011375033
0002c0 53 59 04 3d 71 f4 df ba 73 9f 3f bd 2c f4 6c 3c
       0.03231175 -0.0017086399 -0.046782922 0.014462512
0002d0 ba 46 be 3d d5 53 2d bd a0 2d 2d 3b ea 7a ed 3b
       0.09290834 -0.042316277 0.00264249 0.0072473185
0002e0 af bd 09 be ce a8 09 3d c7 a2 da bc f5 12 02 be
       -0.13451265 0.03360825 -0.026688946 -0.12702544
0002f0 b8 b0 79 bd 21 cb 3a be c7 3c 00 be 11 ad dc bd
       -0.060959548 -0.1824155 -0.12523185 -0.10775197
000300 e5 db dc ba be e6 84 bd c1 d1 13 bc 57 18 c1 bd
       -0.0016850202 -0.06489323 -0.009022177 -0.094284706
000310 39 e2 c4 3c 7a b5 5b bd bc fb 8a bd 43 ec 06 3d
       0.024033653 -0.053639866 -0.06786296 0.03294016
000320 8f 92 a8 3d 52 be 16 be d2 19 66 be d8 94 b5 3d
       0.08231079 -0.14721039 -0.22470787 0.0886628
000330 0b 46 cb 3c f1 fc f1 3c 3b a7 45 bc a3 2a b9 3d
       0.024813673 0.029539557 -0.012063797 0.090413354
000340 fa 0a b6 bd 99 9f d7 bc 32 0f 29 3e 74 bf 39 be
       -0.08888812 -0.02632122 0.16509703 -0.1813944
000350 2b 6c 8b bd 3e ad c5 bc 01 20 48 be ec 23 3b 3d
       -0.06807741 -0.02413046 -0.19543459 0.045688555
000360 8b 88 56 3d 15 67 4f bc 8b b1 2a 3c 49 7d c9 3d
       0.05237631 -0.012658854 0.010418306 0.09838349
000370 bc 9f cb bc f5 88 52 3d ca 04 af 3d 39 8c 84 bd
       -0.02485644 0.051400144 0.08545835 -0.06472058
000380 68 e6 95 bc 33 85 0a 3e 6a be 10 bd 77 e9 48 3d
       -0.018298343 0.13527374 -0.035337843 0.049050774
000390 90 d4 2f 3d 47 ec 77 bc a7 c0 77 3e ed 96 f1 bc
       0.042927325 -0.0151320165 0.24194585 -0.029490912
0003a0 fe a0 d7 bd 5e 5f 3c 3c 41 91 f2 bc 18 ab 96 3d
       -0.10528754 0.011497347 -0.029610278 0.07356852
0003b0 ad dd 2d bd 06 6c 84 3d af 2c 45 bc 3c 5b 54 3d
       -0.042447735 0.06465916 -0.012034579 0.05184482
0003c0 9d 19 7b 3d 55 d6 b0 be e2 79 74 bd a4 37 fb 3c
       0.061303724 -0.34538522 -0.05968655 0.03066618
0003d0 8e 2c 55 3c 46 63 ca bd 1c 0b 50 be 85 bb fd bc
       0.013011111 -0.09882216 -0.20316738 -0.030973205
0003e0 da 6b cb bd f6 22 ee bc d7 18 66 bc be d8 01 be
       -0.099326804 -0.029069405 -0.014044008 -0.12680337
0003f0 d3 9c be bd c5 53 a9 3d fb ef d3 bb 3f 5d 56 bd
       -0.093072556 0.08267931 -0.006467817 -0.05233502

fc4.bias f4 [5]
000000 85 0b 5d bf 3e cb 4d bf bf 80 42 bf 3d 3f 5d bf
       -0.863457 -0.8038825 -0.759777 -0.8642462
000010 da 59 c6 be
       -0.38740426
